…
I0514 23:06:32.435186  8627 net.cpp:294] The NetState phase (0) differed from the phase (1) specified by a rule in layer accuracy
I0514 23:06:32.435418  8627 net.cpp:51] Initializing net from parameters: 
name: "AlexNet"
state {
  phase: TRAIN
  level: 0
  stage: ""
}
layer {
  name: "data"
  type: "Data"
  top: "data"
  top: "label"
  include {
    phase: TRAIN
  }
  transform_param {
    mirror: true
    crop_size: 32
    mean_file: "examples/cifar10/mean.binaryproto"
  }
  data_param {
    source: "examples/cifar10/cifar10_train_lmdb"
    batch_size: 100
    backend: LMDB
  }
}
layer {
  name: "conv1"
  type: "Convolution"
  bottom: "data"
  top: "conv1"
  param {
    lr_mult: 1
    decay_mult: 1
  }
  param {
    lr_mult: 2
    decay_mult: 0
  }
  convolution_param {
    num_output: 96
    kernel_size: 11
    stride: 4
    weight_filler {
      type: "gaussian"
      std: 0.01
    }
    bias_filler {
      type: "constant"
      value: 0
    }
  }
}
layer {
  name: "relu1"
  type: "ReLU"
  bottom: "conv1"
  top: "conv1"
}
layer {
  name: "norm1"
  type: "LRN"
  bottom: "conv1"
  top: "norm1"
  lrn_param {
    local_size: 5
    alpha: 0.0001
    beta: 0.75
  }
}
layer {
  name: "pool1"
  type: "Pooling"
  bottom: "norm1"
  top: "pool1"
  pooling_param {
    pool: MAX
    kernel_size: 3
    stride: 2
  }
}
layer {
  name: "conv2"
  type: "Convolution"
  bottom: "pool1"
  top: "conv2"
  param {
    lr_mult: 1
    decay_mult: 1
  }
  param {
    lr_mult: 2
    decay_mult: 0
  }
  convolution_param {
    num_output: 256
    pad: 2
    kernel_size: 5
    group: 2
    weight_filler {
      type: "gaussian"
      std: 0.01
    }
    bias_filler {
      type: "constant"
      value: 0.1
    }
  }
}
layer {
  name: "relu2"
  type: "ReLU"
  bottom: "conv2"
  top: "conv2"
}
layer {
  name: "norm2"
  type: "LRN"
  bottom: "conv2"
  top: "norm2"
  lrn_param {
    local_size: 5
    alpha: 0.0001
    beta: 0.75
  }
}
layer {
  name: "pool2"
  type: "Pooling"
  bottom: "norm2"
  top: "pool2"
  pooling_param {
    pool: MAX
    kernel_size: 3
    stride: 2
  }
}
layer {
  name: "conv3"
  type: "Convolution"
  bottom: "pool2"
  top: "conv3"
  param {
    lr_mult: 1
    decay_mult: 1
  }
  param {
    lr_mult: 2
    decay_mult: 0
  }
  convolution_param {
    num_output: 384
    pad: 1
    kernel_size: 3
    weight_filler {
      type: "gaussian"
      std: 0.01
    }
    bias_filler {
      type: "constant"
      value: 0
    }
  }
}
layer {
  name: "relu3"
  type: "ReLU"
  bottom: "conv3"
  top: "conv3"
}
layer {
  name: "conv4"
  type: "Convolution"
  bottom: "conv3"
  top: "conv4"
  param {
    lr_mult: 1
    decay_mult: 1
  }
  param {
    lr_mult: 2
    decay_mult: 0
  }
  convolution_param {
    num_output: 384
    pad: 1
    kernel_size: 3
    group: 2
    weight_filler {
      type: "gaussian"
      std: 0.01
    }
    bias_filler {
      type: "constant"
      value: 0.1
    }
  }
}
layer {
  name: "relu4"
  type: "ReLU"
  bottom: "conv4"
  top: "conv4"
}
layer {
  name: "fc6"
  type: "InnerProduct"
  bottom: "conv4"
  top: "fc6"
  param {
    lr_mult: 1
    decay_mult: 1
  }
  param {
    lr_mult: 2
    decay_mult: 0
  }
  inner_product_param {
    num_output: 4096
    weight_filler {
      type: "gaussian"
      std: 0.005
    }
    bias_filler {
      type: "constant"
      value: 0.1
    }
  }
}
layer {
  name: "relu6"
  type: "ReLU"
  bottom: "fc6"
  top: "fc6"
}
layer {
  name: "drop6"
  type: "Dropout"
  bottom: "fc6"
  top: "fc6"
  dropout_param {
    dropout_ratio: 0.5
  }
}
layer {
  name: "fc7"
  type: "InnerProduct"
  bottom: "fc6"
  top: "fc7"
  param {
    lr_mult: 1
    decay_mult: 1
  }
  param {
    lr_mult: 2
    decay_mult: 0
  }
  inner_product_param {
    num_output: 4096
    weight_filler {
      type: "gaussian"
      std: 0.005
    }
    bias_filler {
      type: "constant"
      value: 0.1
    }
  }
}
layer {
  name: "relu7"
  type: "ReLU"
  bottom: "fc7"
  top: "fc7"
}
layer {
  name: "drop7"
  type: "Dropout"
  bottom: "fc7"
  top: "fc7"
  dropout_param {
    dropout_ratio: 0.5
  }
}
layer {
  name: "fc8"
  type: "InnerProduct"
  bottom: "fc7"
  top: "fc8"
  param {
    lr_mult: 1
    decay_mult: 1
  }
  param {
    lr_mult: 2
    decay_mult: 0
  }
  inner_product_param {
    num_output: 1000
    weight_filler {
      type: "gaussian"
      std: 0.01
    }
    bias_filler {
      type: "constant"
      value: 0
    }
  }
}
layer {
  name: "loss"
  type: "SoftmaxWithLoss"
  bottom: "fc8"
  bottom: "label"
  top: "loss"
}
I0514 23:06:32.435545  8627 layer_factory.hpp:77] Creating layer data
I0514 23:06:32.435675  8627 db_lmdb.cpp:35] Opened lmdb examples/cifar10/cifar10_train_lmdb
I0514 23:06:32.435716  8627 net.cpp:84] Creating Layer data
I0514 23:06:32.435729  8627 net.cpp:380] data -> data
I0514 23:06:32.435760  8627 net.cpp:380] data -> label
I0514 23:06:32.435781  8627 data_transformer.cpp:25] Loading mean file from: examples/cifar10/mean.binaryproto
I0514 23:06:32.436386  8627 data_layer.cpp:45] output data size: 100,3,32,32
I0514 23:06:32.436458  8627 net.cpp:122] Setting up data
I0514 23:06:32.436475  8627 net.cpp:129] Top shape: 100 3 32 32 (307200)
I0514 23:06:32.436483  8627 net.cpp:129] Top shape: 100 (100)
I0514 23:06:32.436488  8627 net.cpp:137] Memory required for data: 1229200
I0514 23:06:32.436498  8627 layer_factory.hpp:77] Creating layer conv1
I0514 23:06:32.436517  8627 net.cpp:84] Creating Layer conv1
I0514 23:06:32.436529  8627 net.cpp:406] conv1 <- data
I0514 23:06:32.436545  8627 net.cpp:380] conv1 -> conv1
I0514 23:06:32.437280  8627 net.cpp:122] Setting up conv1
I0514 23:06:32.437297  8627 net.cpp:129] Top shape: 100 96 6 6 (345600)
I0514 23:06:32.437304  8627 net.cpp:137] Memory required for data: 2611600
I0514 23:06:32.437327  8627 layer_factory.hpp:77] Creating layer relu1
I0514 23:06:32.437340  8627 net.cpp:84] Creating Layer relu1
I0514 23:06:32.437347  8627 net.cpp:406] relu1 <- conv1
I0514 23:06:32.437355  8627 net.cpp:367] relu1 -> conv1 (in-place)
I0514 23:06:32.437366  8627 net.cpp:122] Setting up relu1
I0514 23:06:32.437396  8627 net.cpp:129] Top shape: 100 96 6 6 (345600)
I0514 23:06:32.437402  8627 net.cpp:137] Memory required for data: 3994000
I0514 23:06:32.437408  8627 layer_factory.hpp:77] Creating layer norm1
I0514 23:06:32.437417  8627 net.cpp:84] Creating Layer norm1
I0514 23:06:32.437422  8627 net.cpp:406] norm1 <- conv1
I0514 23:06:32.437433  8627 net.cpp:380] norm1 -> norm1
I0514 23:06:32.437448  8627 net.cpp:122] Setting up norm1
I0514 23:06:32.437456  8627 net.cpp:129] Top shape: 100 96 6 6 (345600)
I0514 23:06:32.437463  8627 net.cpp:137] Memory required for data: 5376400
I0514 23:06:32.437467  8627 layer_factory.hpp:77] Creating layer pool1
I0514 23:06:32.437476  8627 net.cpp:84] Creating Layer pool1
I0514 23:06:32.437482  8627 net.cpp:406] pool1 <- norm1
I0514 23:06:32.437490  8627 net.cpp:380] pool1 -> pool1
I0514 23:06:32.437515  8627 net.cpp:122] Setting up pool1
I0514 23:06:32.437525  8627 net.cpp:129] Top shape: 100 96 3 3 (86400)
I0514 23:06:32.437533  8627 net.cpp:137] Memory required for data: 5722000
I0514 23:06:32.437539  8627 layer_factory.hpp:77] Creating layer conv2
I0514 23:06:32.437553  8627 net.cpp:84] Creating Layer conv2
I0514 23:06:32.437559  8627 net.cpp:406] conv2 <- pool1
I0514 23:06:32.437568  8627 net.cpp:380] conv2 -> conv2
I0514 23:06:32.443500  8627 net.cpp:122] Setting up conv2
I0514 23:06:32.443531  8627 net.cpp:129] Top shape: 100 256 3 3 (230400)
I0514 23:06:32.443545  8627 net.cpp:137] Memory required for data: 6643600
I0514 23:06:32.443572  8627 layer_factory.hpp:77] Creating layer relu2
I0514 23:06:32.443583  8627 net.cpp:84] Creating Layer relu2
I0514 23:06:32.443589  8627 net.cpp:406] relu2 <- conv2
I0514 23:06:32.443600  8627 net.cpp:367] relu2 -> conv2 (in-place)
I0514 23:06:32.443612  8627 net.cpp:122] Setting up relu2
I0514 23:06:32.443620  8627 net.cpp:129] Top shape: 100 256 3 3 (230400)
I0514 23:06:32.443625  8627 net.cpp:137] Memory required for data: 7565200
I0514 23:06:32.443631  8627 layer_factory.hpp:77] Creating layer norm2
I0514 23:06:32.443639  8627 net.cpp:84] Creating Layer norm2
I0514 23:06:32.443645  8627 net.cpp:406] norm2 <- conv2
I0514 23:06:32.443653  8627 net.cpp:380] norm2 -> norm2
I0514 23:06:32.443665  8627 net.cpp:122] Setting up norm2
I0514 23:06:32.443672  8627 net.cpp:129] Top shape: 100 256 3 3 (230400)
I0514 23:06:32.443677  8627 net.cpp:137] Memory required for data: 8486800
I0514 23:06:32.443682  8627 layer_factory.hpp:77] Creating layer pool2
I0514 23:06:32.443693  8627 net.cpp:84] Creating Layer pool2
I0514 23:06:32.443698  8627 net.cpp:406] pool2 <- norm2
I0514 23:06:32.443706  8627 net.cpp:380] pool2 -> pool2
I0514 23:06:32.443718  8627 net.cpp:122] Setting up pool2
I0514 23:06:32.443727  8627 net.cpp:129] Top shape: 100 256 1 1 (25600)
I0514 23:06:32.443732  8627 net.cpp:137] Memory required for data: 8589200
I0514 23:06:32.443737  8627 layer_factory.hpp:77] Creating layer conv3
I0514 23:06:32.443747  8627 net.cpp:84] Creating Layer conv3
I0514 23:06:32.443755  8627 net.cpp:406] conv3 <- pool2
I0514 23:06:32.443768  8627 net.cpp:380] conv3 -> conv3
I0514 23:06:32.456387  8627 net.cpp:122] Setting up conv3
I0514 23:06:32.456398  8627 net.cpp:129] Top shape: 100 384 1 1 (38400)
I0514 23:06:32.456400  8627 net.cpp:137] Memory required for data: 8742800
I0514 23:06:32.456408  8627 layer_factory.hpp:77] Creating layer relu3
I0514 23:06:32.456413  8627 net.cpp:84] Creating Layer relu3
I0514 23:06:32.456415  8627 net.cpp:406] relu3 <- conv3
I0514 23:06:32.456419  8627 net.cpp:367] relu3 -> conv3 (in-place)
I0514 23:06:32.456424  8627 net.cpp:122] Setting up relu3
I0514 23:06:32.456429  8627 net.cpp:129] Top shape: 100 384 1 1 (38400)
I0514 23:06:32.456431  8627 net.cpp:137] Memory required for data: 8896400
I0514 23:06:32.456434  8627 layer_factory.hpp:77] Creating layer conv4
I0514 23:06:32.456440  8627 net.cpp:84] Creating Layer conv4
I0514 23:06:32.456445  8627 net.cpp:406] conv4 <- conv3
I0514 23:06:32.456450  8627 net.cpp:380] conv4 -> conv4
I0514 23:06:32.462743  8627 net.cpp:122] Setting up conv4
I0514 23:06:32.462754  8627 net.cpp:129] Top shape: 100 384 1 1 (38400)
I0514 23:06:32.462757  8627 net.cpp:137] Memory required for data: 9050000
I0514 23:06:32.462764  8627 layer_factory.hpp:77] Creating layer relu4
I0514 23:06:32.462767  8627 net.cpp:84] Creating Layer relu4
I0514 23:06:32.462770  8627 net.cpp:406] relu4 <- conv4
I0514 23:06:32.462774  8627 net.cpp:367] relu4 -> conv4 (in-place)
I0514 23:06:32.462779  8627 net.cpp:122] Setting up relu4
I0514 23:06:32.462783  8627 net.cpp:129] Top shape: 100 384 1 1 (38400)
I0514 23:06:32.462786  8627 net.cpp:137] Memory required for data: 9203600
I0514 23:06:32.462788  8627 layer_factory.hpp:77] Creating layer fc6
I0514 23:06:32.462795  8627 net.cpp:84] Creating Layer fc6
I0514 23:06:32.462800  8627 net.cpp:406] fc6 <- conv4
I0514 23:06:32.462803  8627 net.cpp:380] fc6 -> fc6
I0514 23:06:32.476953  8627 net.cpp:122] Setting up fc6
I0514 23:06:32.476969  8627 net.cpp:129] Top shape: 100 4096 (409600)
I0514 23:06:32.476972  8627 net.cpp:137] Memory required for data: 10842000
I0514 23:06:32.476986  8627 layer_factory.hpp:77] Creating layer relu6
I0514 23:06:32.476992  8627 net.cpp:84] Creating Layer relu6
I0514 23:06:32.476996  8627 net.cpp:406] relu6 <- fc6
I0514 23:06:32.477000  8627 net.cpp:367] relu6 -> fc6 (in-place)
I0514 23:06:32.477006  8627 net.cpp:122] Setting up relu6
I0514 23:06:32.477010  8627 net.cpp:129] Top shape: 100 4096 (409600)
I0514 23:06:32.477012  8627 net.cpp:137] Memory required for data: 12480400
I0514 23:06:32.477031  8627 layer_factory.hpp:77] Creating layer drop6
I0514 23:06:32.477041  8627 net.cpp:84] Creating Layer drop6
I0514 23:06:32.477043  8627 net.cpp:406] drop6 <- fc6
I0514 23:06:32.477047  8627 net.cpp:367] drop6 -> fc6 (in-place)
I0514 23:06:32.477056  8627 net.cpp:122] Setting up drop6
I0514 23:06:32.477061  8627 net.cpp:129] Top shape: 100 4096 (409600)
I0514 23:06:32.477062  8627 net.cpp:137] Memory required for data: 14118800
I0514 23:06:32.477066  8627 layer_factory.hpp:77] Creating layer fc7
I0514 23:06:32.477073  8627 net.cpp:84] Creating Layer fc7
I0514 23:06:32.477077  8627 net.cpp:406] fc7 <- fc6
I0514 23:06:32.477082  8627 net.cpp:380] fc7 -> fc7
I0514 23:06:32.620800  8627 net.cpp:122] Setting up fc7
I0514 23:06:32.620846  8627 net.cpp:129] Top shape: 100 4096 (409600)
I0514 23:06:32.620860  8627 net.cpp:137] Memory required for data: 15757200
I0514 23:06:32.620873  8627 layer_factory.hpp:77] Creating layer relu7
I0514 23:06:32.620884  8627 net.cpp:84] Creating Layer relu7
I0514 23:06:32.620889  8627 net.cpp:406] relu7 <- fc7
I0514 23:06:32.620900  8627 net.cpp:367] relu7 -> fc7 (in-place)
I0514 23:06:32.620910  8627 net.cpp:122] Setting up relu7
I0514 23:06:32.620914  8627 net.cpp:129] Top shape: 100 4096 (409600)
I0514 23:06:32.620918  8627 net.cpp:137] Memory required for data: 17395600
I0514 23:06:32.620919  8627 layer_factory.hpp:77] Creating layer drop7
I0514 23:06:32.620925  8627 net.cpp:84] Creating Layer drop7
I0514 23:06:32.620928  8627 net.cpp:406] drop7 <- fc7
I0514 23:06:32.620932  8627 net.cpp:367] drop7 -> fc7 (in-place)
I0514 23:06:32.620937  8627 net.cpp:122] Setting up drop7
I0514 23:06:32.620941  8627 net.cpp:129] Top shape: 100 4096 (409600)
I0514 23:06:32.620944  8627 net.cpp:137] Memory required for data: 19034000
I0514 23:06:32.620946  8627 layer_factory.hpp:77] Creating layer fc8
I0514 23:06:32.620952  8627 net.cpp:84] Creating Layer fc8
I0514 23:06:32.620956  8627 net.cpp:406] fc8 <- fc7
I0514 23:06:32.620961  8627 net.cpp:380] fc8 -> fc8
I0514 23:06:32.656148  8627 net.cpp:122] Setting up fc8
I0514 23:06:32.656189  8627 net.cpp:129] Top shape: 100 1000 (100000)
I0514 23:06:32.656193  8627 net.cpp:137] Memory required for data: 19434000
I0514 23:06:32.656203  8627 layer_factory.hpp:77] Creating layer loss
I0514 23:06:32.656211  8627 net.cpp:84] Creating Layer loss
I0514 23:06:32.656215  8627 net.cpp:406] loss <- fc8
I0514 23:06:32.656222  8627 net.cpp:406] loss <- label
I0514 23:06:32.656230  8627 net.cpp:380] loss -> loss
I0514 23:06:32.656244  8627 layer_factory.hpp:77] Creating layer loss
…
I0514 23:06:32.656775  8627 net.cpp:294] The NetState phase (1) differed from the phase (0) specified by a rule in layer data
I0514 23:06:32.656911  8627 net.cpp:51] Initializing net from parameters: 
name: "AlexNet"
state {
  phase: TEST
}
layer {
  name: "data"
  type: "Data"
  top: "data"
  top: "label"
  include {
    phase: TEST
  }
  transform_param {
    mirror: false
    crop_size: 32
    mean_file: "examples/cifar10/mean.binaryproto"
  }
  data_param {
    source: "examples/cifar10/cifar10_test_lmdb"
    batch_size: 100
    backend: LMDB
  }
}
layer {
  name: "conv1"
  type: "Convolution"
  bottom: "data"
  top: "conv1"
  param {
    lr_mult: 1
    decay_mult: 1
  }
  param {
    lr_mult: 2
    decay_mult: 0
  }
  convolution_param {
    num_output: 96
    kernel_size: 11
    stride: 4
    weight_filler {
      type: "gaussian"
      std: 0.01
    }
    bias_filler {
      type: "constant"
      value: 0
    }
  }
}
layer {
  name: "relu1"
  type: "ReLU"
  bottom: "conv1"
  top: "conv1"
}
layer {
  name: "norm1"
  type: "LRN"
  bottom: "conv1"
  top: "norm1"
  lrn_param {
    local_size: 5
    alpha: 0.0001
    beta: 0.75
  }
}
layer {
  name: "pool1"
  type: "Pooling"
  bottom: "norm1"
  top: "pool1"
  pooling_param {
    pool: MAX
    kernel_size: 3
    stride: 2
  }
}
layer {
  name: "conv2"
  type: "Convolution"
  bottom: "pool1"
  top: "conv2"
  param {
    lr_mult: 1
    decay_mult: 1
  }
  param {
    lr_mult: 2
    decay_mult: 0
  }
  convolution_param {
    num_output: 256
    pad: 2
    kernel_size: 5
    group: 2
    weight_filler {
      type: "gaussian"
      std: 0.01
    }
    bias_filler {
      type: "constant"
      value: 0.1
    }
  }
}
layer {
  name: "relu2"
  type: "ReLU"
  bottom: "conv2"
  top: "conv2"
}
layer {
  name: "norm2"
  type: "LRN"
  bottom: "conv2"
  top: "norm2"
  lrn_param {
    local_size: 5
    alpha: 0.0001
    beta: 0.75
  }
}
layer {
  name: "pool2"
  type: "Pooling"
  bottom: "norm2"
  top: "pool2"
  pooling_param {
    pool: MAX
    kernel_size: 3
    stride: 2
  }
}
layer {
  name: "conv3"
  type: "Convolution"
  bottom: "pool2"
  top: "conv3"
  param {
    lr_mult: 1
    decay_mult: 1
  }
  param {
    lr_mult: 2
    decay_mult: 0
  }
  convolution_param {
    num_output: 384
    pad: 1
    kernel_size: 3
    weight_filler {
      type: "gaussian"
      std: 0.01
    }
    bias_filler {
      type: "constant"
      value: 0
    }
  }
}
layer {
  name: "relu3"
  type: "ReLU"
  bottom: "conv3"
  top: "conv3"
}
layer {
  name: "conv4"
  type: "Convolution"
  bottom: "conv3"
  top: "conv4"
  param {
    lr_mult: 1
    decay_mult: 1
  }
  param {
    lr_mult: 2
    decay_mult: 0
  }
  convolution_param {
    num_output: 384
    pad: 1
    kernel_size: 3
    group: 2
    weight_filler {
      type: "gaussian"
      std: 0.01
    }
    bias_filler {
      type: "constant"
      value: 0.1
    }
  }
}
layer {
  name: "relu4"
  type: "ReLU"
  bottom: "conv4"
  top: "conv4"
}
layer {
  name: "fc6"
  type: "InnerProduct"
  bottom: "conv4"
  top: "fc6"
  param {
    lr_mult: 1
    decay_mult: 1
  }
  param {
    lr_mult: 2
    decay_mult: 0
  }
  inner_product_param {
    num_output: 4096
    weight_filler {
      type: "gaussian"
      std: 0.005
    }
    bias_filler {
      type: "constant"
      value: 0.1
    }
  }
}
layer {
  name: "relu6"
  type: "ReLU"
  bottom: "fc6"
  top: "fc6"
}
layer {
  name: "drop6"
  type: "Dropout"
  bottom: "fc6"
  top: "fc6"
  dropout_param {
    dropout_ratio: 0.5
  }
}
layer {
  name: "fc7"
  type: "InnerProduct"
  bottom: "fc6"
  top: "fc7"
  param {
    lr_mult: 1
    decay_mult: 1
  }
  param {
    lr_mult: 2
    decay_mult: 0
  }
  inner_product_param {
    num_output: 4096
    weight_filler {
      type: "gaussian"
      std: 0.005
    }
    bias_filler {
      type: "constant"
      value: 0.1
    }
  }
}
layer {
  name: "relu7"
  type: "ReLU"
  bottom: "fc7"
  top: "fc7"
}
layer {
  name: "drop7"
  type: "Dropout"
  bottom: "fc7"
  top: "fc7"
  dropout_param {
    dropout_ratio: 0.5
  }
}
layer {
  name: "fc8"
  type: "InnerProduct"
  bottom: "fc7"
  top: "fc8"
  param {
    lr_mult: 1
    decay_mult: 1
  }
  param {
    lr_mult: 2
    decay_mult: 0
  }
  inner_product_param {
    num_output: 1000
    weight_filler {
      type: "gaussian"
      std: 0.01
    }
    bias_filler {
      type: "constant"
      value: 0
    }
  }
}
layer {
  name: "accuracy"
  type: "Accuracy"
  bottom: "fc8"
  bottom: "label"
  top: "accuracy"
  include {
    phase: TEST
  }
}
layer {
  name: "loss"
  type: "SoftmaxWithLoss"
  bottom: "fc8"
  bottom: "label"
  top: "loss"
}
I0514 23:06:32.657007  8627 layer_factory.hpp:77] Creating layer data
I0514 23:06:32.657073  8627 db_lmdb.cpp:35] Opened lmdb examples/cifar10/cifar10_test_lmdb
I0514 23:06:32.657096  8627 net.cpp:84] Creating Layer data
I0514 23:06:32.657104  8627 net.cpp:380] data -> data
I0514 23:06:32.657110  8627 net.cpp:380] data -> label
I0514 23:06:32.657116  8627 data_transformer.cpp:25] Loading mean file from: examples/cifar10/mean.binaryproto
I0514 23:06:32.657166  8627 data_layer.cpp:45] output data size: 100,3,32,32
I0514 23:06:32.657214  8627 net.cpp:122] Setting up data
I0514 23:06:32.657222  8627 net.cpp:129] Top shape: 100 3 32 32 (307200)
I0514 23:06:32.657224  8627 net.cpp:129] Top shape: 100 (100)
I0514 23:06:32.657227  8627 net.cpp:137] Memory required for data: 1229200
I0514 23:06:32.657230  8627 layer_factory.hpp:77] Creating layer label_data_1_split
I0514 23:06:32.657235  8627 net.cpp:84] Creating Layer label_data_1_split
I0514 23:06:32.657238  8627 net.cpp:406] label_data_1_split <- label
I0514 23:06:32.657244  8627 net.cpp:380] label_data_1_split -> label_data_1_split_0
I0514 23:06:32.657250  8627 net.cpp:380] label_data_1_split -> label_data_1_split_1
I0514 23:06:32.657256  8627 net.cpp:122] Setting up label_data_1_split
I0514 23:06:32.657259  8627 net.cpp:129] Top shape: 100 (100)
I0514 23:06:32.657263  8627 net.cpp:129] Top shape: 100 (100)
I0514 23:06:32.657265  8627 net.cpp:137] Memory required for data: 1230000
I0514 23:06:32.657268  8627 layer_factory.hpp:77] Creating layer conv1
I0514 23:06:32.657274  8627 net.cpp:84] Creating Layer conv1
I0514 23:06:32.657277  8627 net.cpp:406] conv1 <- data
I0514 23:06:32.657282  8627 net.cpp:380] conv1 -> conv1
I0514 23:06:32.657655  8627 net.cpp:122] Setting up conv1
I0514 23:06:32.657662  8627 net.cpp:129] Top shape: 100 96 6 6 (345600)
I0514 23:06:32.657665  8627 net.cpp:137] Memory required for data: 2612400
I0514 23:06:32.657675  8627 layer_factory.hpp:77] Creating layer relu1
I0514 23:06:32.657680  8627 net.cpp:84] Creating Layer relu1
I0514 23:06:32.657682  8627 net.cpp:406] relu1 <- conv1
I0514 23:06:32.657686  8627 net.cpp:367] relu1 -> conv1 (in-place)
I0514 23:06:32.657691  8627 net.cpp:122] Setting up relu1
I0514 23:06:32.657696  8627 net.cpp:129] Top shape: 100 96 6 6 (345600)
I0514 23:06:32.657698  8627 net.cpp:137] Memory required for data: 3994800
I0514 23:06:32.657701  8627 layer_factory.hpp:77] Creating layer norm1
I0514 23:06:32.657706  8627 net.cpp:84] Creating Layer norm1
I0514 23:06:32.657708  8627 net.cpp:406] norm1 <- conv1
I0514 23:06:32.657712  8627 net.cpp:380] norm1 -> norm1
I0514 23:06:32.657718  8627 net.cpp:122] Setting up norm1
I0514 23:06:32.657722  8627 net.cpp:129] Top shape: 100 96 6 6 (345600)
I0514 23:06:32.657726  8627 net.cpp:137] Memory required for data: 5377200
I0514 23:06:32.657728  8627 layer_factory.hpp:77] Creating layer pool1
I0514 23:06:32.657732  8627 net.cpp:84] Creating Layer pool1
I0514 23:06:32.657737  8627 net.cpp:406] pool1 <- norm1
I0514 23:06:32.657745  8627 net.cpp:380] pool1 -> pool1
I0514 23:06:32.657752  8627 net.cpp:122] Setting up pool1
I0514 23:06:32.657755  8627 net.cpp:129] Top shape: 100 96 3 3 (86400)
I0514 23:06:32.657758  8627 net.cpp:137] Memory required for data: 5722800
I0514 23:06:32.657760  8627 layer_factory.hpp:77] Creating layer conv2
I0514 23:06:32.657770  8627 net.cpp:84] Creating Layer conv2
I0514 23:06:32.657775  8627 net.cpp:406] conv2 <- pool1
I0514 23:06:32.657779  8627 net.cpp:380] conv2 -> conv2
I0514 23:06:32.660640  8627 net.cpp:122] Setting up conv2
I0514 23:06:32.660667  8627 net.cpp:129] Top shape: 100 256 3 3 (230400)
I0514 23:06:32.660671  8627 net.cpp:137] Memory required for data: 6644400
I0514 23:06:32.660679  8627 layer_factory.hpp:77] Creating layer relu2
I0514 23:06:32.660686  8627 net.cpp:84] Creating Layer relu2
I0514 23:06:32.660688  8627 net.cpp:406] relu2 <- conv2
I0514 23:06:32.660694  8627 net.cpp:367] relu2 -> conv2 (in-place)
I0514 23:06:32.660701  8627 net.cpp:122] Setting up relu2
I0514 23:06:32.660704  8627 net.cpp:129] Top shape: 100 256 3 3 (230400)
I0514 23:06:32.660707  8627 net.cpp:137] Memory required for data: 7566000
I0514 23:06:32.660709  8627 layer_factory.hpp:77] Creating layer norm2
I0514 23:06:32.660715  8627 net.cpp:84] Creating Layer norm2
I0514 23:06:32.660718  8627 net.cpp:406] norm2 <- conv2
I0514 23:06:32.660722  8627 net.cpp:380] norm2 -> norm2
I0514 23:06:32.660728  8627 net.cpp:122] Setting up norm2
I0514 23:06:32.660732  8627 net.cpp:129] Top shape: 100 256 3 3 (230400)
I0514 23:06:32.660735  8627 net.cpp:137] Memory required for data: 8487600
I0514 23:06:32.660738  8627 layer_factory.hpp:77] Creating layer pool2
I0514 23:06:32.660742  8627 net.cpp:84] Creating Layer pool2
I0514 23:06:32.660745  8627 net.cpp:406] pool2 <- norm2
I0514 23:06:32.660749  8627 net.cpp:380] pool2 -> pool2
I0514 23:06:32.660755  8627 net.cpp:122] Setting up pool2
I0514 23:06:32.660758  8627 net.cpp:129] Top shape: 100 256 1 1 (25600)
I0514 23:06:32.660761  8627 net.cpp:137] Memory required for data: 8590000
I0514 23:06:32.660763  8627 layer_factory.hpp:77] Creating layer conv3
I0514 23:06:32.660769  8627 net.cpp:84] Creating Layer conv3
I0514 23:06:32.660774  8627 net.cpp:406] conv3 <- pool2
I0514 23:06:32.660779  8627 net.cpp:380] conv3 -> conv3
I0514 23:06:32.668551  8627 net.cpp:122] Setting up conv3
I0514 23:06:32.668565  8627 net.cpp:129] Top shape: 100 384 1 1 (38400)
I0514 23:06:32.668577  8627 net.cpp:137] Memory required for data: 8743600
I0514 23:06:32.668584  8627 layer_factory.hpp:77] Creating layer relu3
I0514 23:06:32.668589  8627 net.cpp:84] Creating Layer relu3
I0514 23:06:32.668592  8627 net.cpp:406] relu3 <- conv3
I0514 23:06:32.668596  8627 net.cpp:367] relu3 -> conv3 (in-place)
I0514 23:06:32.668601  8627 net.cpp:122] Setting up relu3
I0514 23:06:32.668604  8627 net.cpp:129] Top shape: 100 384 1 1 (38400)
I0514 23:06:32.668607  8627 net.cpp:137] Memory required for data: 8897200
I0514 23:06:32.668609  8627 layer_factory.hpp:77] Creating layer conv4
I0514 23:06:32.668617  8627 net.cpp:84] Creating Layer conv4
I0514 23:06:32.668620  8627 net.cpp:406] conv4 <- conv3
I0514 23:06:32.668624  8627 net.cpp:380] conv4 -> conv4
I0514 23:06:32.674623  8627 net.cpp:122] Setting up conv4
I0514 23:06:32.674634  8627 net.cpp:129] Top shape: 100 384 1 1 (38400)
I0514 23:06:32.674648  8627 net.cpp:137] Memory required for data: 9050800
I0514 23:06:32.674652  8627 layer_factory.hpp:77] Creating layer relu4
I0514 23:06:32.674656  8627 net.cpp:84] Creating Layer relu4
I0514 23:06:32.674659  8627 net.cpp:406] relu4 <- conv4
I0514 23:06:32.674664  8627 net.cpp:367] relu4 -> conv4 (in-place)
I0514 23:06:32.674669  8627 net.cpp:122] Setting up relu4
I0514 23:06:32.674674  8627 net.cpp:129] Top shape: 100 384 1 1 (38400)
I0514 23:06:32.674675  8627 net.cpp:137] Memory required for data: 9204400
I0514 23:06:32.674679  8627 layer_factory.hpp:77] Creating layer fc6
I0514 23:06:32.674684  8627 net.cpp:84] Creating Layer fc6
I0514 23:06:32.674693  8627 net.cpp:406] fc6 <- conv4
I0514 23:06:32.674705  8627 net.cpp:380] fc6 -> fc6
I0514 23:06:32.688375  8627 net.cpp:122] Setting up fc6
I0514 23:06:32.688416  8627 net.cpp:129] Top shape: 100 4096 (409600)
I0514 23:06:32.688419  8627 net.cpp:137] Memory required for data: 10842800
I0514 23:06:32.688432  8627 layer_factory.hpp:77] Creating layer relu6
I0514 23:06:32.688441  8627 net.cpp:84] Creating Layer relu6
I0514 23:06:32.688446  8627 net.cpp:406] relu6 <- fc6
I0514 23:06:32.688452  8627 net.cpp:367] relu6 -> fc6 (in-place)
I0514 23:06:32.688460  8627 net.cpp:122] Setting up relu6
I0514 23:06:32.688463  8627 net.cpp:129] Top shape: 100 4096 (409600)
I0514 23:06:32.688467  8627 net.cpp:137] Memory required for data: 12481200
I0514 23:06:32.688469  8627 layer_factory.hpp:77] Creating layer drop6
I0514 23:06:32.688477  8627 net.cpp:84] Creating Layer drop6
I0514 23:06:32.688479  8627 net.cpp:406] drop6 <- fc6
I0514 23:06:32.688483  8627 net.cpp:367] drop6 -> fc6 (in-place)
I0514 23:06:32.688490  8627 net.cpp:122] Setting up drop6
I0514 23:06:32.688494  8627 net.cpp:129] Top shape: 100 4096 (409600)
I0514 23:06:32.688498  8627 net.cpp:137] Memory required for data: 14119600
I0514 23:06:32.688499  8627 layer_factory.hpp:77] Creating layer fc7
I0514 23:06:32.688505  8627 net.cpp:84] Creating Layer fc7
I0514 23:06:32.688508  8627 net.cpp:406] fc7 <- fc6
I0514 23:06:32.688511  8627 net.cpp:380] fc7 -> fc7
I0514 23:06:32.831710  8627 net.cpp:122] Setting up fc7
I0514 23:06:32.831751  8627 net.cpp:129] Top shape: 100 4096 (409600)
I0514 23:06:32.831765  8627 net.cpp:137] Memory required for data: 15758000
I0514 23:06:32.831776  8627 layer_factory.hpp:77] Creating layer relu7
I0514 23:06:32.831787  8627 net.cpp:84] Creating Layer relu7
I0514 23:06:32.831794  8627 net.cpp:406] relu7 <- fc7
I0514 23:06:32.831800  8627 net.cpp:367] relu7 -> fc7 (in-place)
I0514 23:06:32.831810  8627 net.cpp:122] Setting up relu7
I0514 23:06:32.831814  8627 net.cpp:129] Top shape: 100 4096 (409600)
I0514 23:06:32.831816  8627 net.cpp:137] Memory required for data: 17396400
I0514 23:06:32.831820  8627 layer_factory.hpp:77] Creating layer drop7
I0514 23:06:32.831833  8627 net.cpp:84] Creating Layer drop7
I0514 23:06:32.831836  8627 net.cpp:406] drop7 <- fc7
I0514 23:06:32.831840  8627 net.cpp:367] drop7 -> fc7 (in-place)
I0514 23:06:32.831845  8627 net.cpp:122] Setting up drop7
I0514 23:06:32.831848  8627 net.cpp:129] Top shape: 100 4096 (409600)
I0514 23:06:32.831851  8627 net.cpp:137] Memory required for data: 19034800
I0514 23:06:32.831853  8627 layer_factory.hpp:77] Creating layer fc8
I0514 23:06:32.831859  8627 net.cpp:84] Creating Layer fc8
I0514 23:06:32.831862  8627 net.cpp:406] fc8 <- fc7
I0514 23:06:32.831867  8627 net.cpp:380] fc8 -> fc8
I0514 23:06:32.867291  8627 net.cpp:122] Setting up fc8
I0514 23:06:32.867329  8627 net.cpp:129] Top shape: 100 1000 (100000)
I0514 23:06:32.867332  8627 net.cpp:137] Memory required for data: 19434800
I0514 23:06:32.867341  8627 layer_factory.hpp:77] Creating layer fc8_fc8_0_split
I0514 23:06:32.867348  8627 net.cpp:84] Creating Layer fc8_fc8_0_split
I0514 23:06:32.867352  8627 net.cpp:406] fc8_fc8_0_split <- fc8
I0514 23:06:32.867360  8627 net.cpp:380] fc8_fc8_0_split -> fc8_fc8_0_split_0
I0514 23:06:32.867368  8627 net.cpp:380] fc8_fc8_0_split -> fc8_fc8_0_split_1
I0514 23:06:32.867378  8627 net.cpp:122] Setting up fc8_fc8_0_split
I0514 23:06:32.867383  8627 net.cpp:129] Top shape: 100 1000 (100000)
I0514 23:06:32.867388  8627 net.cpp:129] Top shape: 100 1000 (100000)
I0514 23:06:32.867390  8627 net.cpp:137] Memory required for data: 20234800
I0514 23:06:32.867393  8627 layer_factory.hpp:77] Creating layer accuracy
I0514 23:06:32.867398  8627 net.cpp:84] Creating Layer accuracy
I0514 23:06:32.867401  8627 net.cpp:406] accuracy <- fc8_fc8_0_split_0
I0514 23:06:32.867404  8627 net.cpp:406] accuracy <- label_data_1_split_0
I0514 23:06:32.867409  8627 net.cpp:380] accuracy -> accuracy
…
