…
I0515 16:57:43.667096  6366 net.cpp:294] The NetState phase (0) differed from the phase (1) specified by a rule in layer accuracy_top_5
I0515 16:57:43.667230  6366 net.cpp:51] Initializing net from parameters: 
name: "AlexNet"
state {
  phase: TRAIN
  level: 0
  stage: ""
}
layer {
  name: "data"
  type: "Data"
  top: "data"
  top: "label"
  include {
    phase: TRAIN
  }
  transform_param {
    mirror: true
    crop_size: 32
    mean_file: "../caffe/examples/cifar10/mean.binaryproto"
  }
  data_param {
    source: "../caffe/examples/cifar10/cifar10_train_lmdb"
    batch_size: 100
    backend: LMDB
  }
}
layer {
  name: "conv1"
  type: "Convolution"
  bottom: "data"
  top: "conv1"
  param {
    lr_mult: 1
    decay_mult: 1
  }
  param {
    lr_mult: 2
    decay_mult: 0
  }
  convolution_param {
    num_output: 96
    kernel_size: 11
    stride: 4
    weight_filler {
      type: "gaussian"
      std: 0.01
    }
    bias_filler {
      type: "constant"
      value: 0
    }
  }
}
layer {
  name: "relu1"
  type: "ReLU"
  bottom: "conv1"
  top: "conv1"
}
layer {
  name: "norm1"
  type: "LRN"
  bottom: "conv1"
  top: "norm1"
  lrn_param {
    local_size: 5
    alpha: 0.0001
    beta: 0.75
  }
}
layer {
  name: "pool1"
  type: "Pooling"
  bottom: "norm1"
  top: "pool1"
  pooling_param {
    pool: MAX
    kernel_size: 3
    stride: 2
  }
}
layer {
  name: "conv2"
  type: "Convolution"
  bottom: "pool1"
  top: "conv2"
  param {
    lr_mult: 1
    decay_mult: 1
  }
  param {
    lr_mult: 2
    decay_mult: 0
  }
  convolution_param {
    num_output: 256
    pad: 2
    kernel_size: 5
    group: 2
    weight_filler {
      type: "gaussian"
      std: 0.01
    }
    bias_filler {
      type: "constant"
      value: 0.1
    }
  }
}
layer {
  name: "relu2"
  type: "ReLU"
  bottom: "conv2"
  top: "conv2"
}
layer {
  name: "norm2"
  type: "LRN"
  bottom: "conv2"
  top: "norm2"
  lrn_param {
    local_size: 5
    alpha: 0.0001
    beta: 0.75
  }
}
layer {
  name: "pool2"
  type: "Pooling"
  bottom: "norm2"
  top: "pool2"
  pooling_param {
    pool: MAX
    kernel_size: 3
    stride: 2
  }
}
layer {
  name: "conv3"
  type: "Convolution"
  bottom: "pool2"
  top: "conv3"
  param {
    lr_mult: 1
    decay_mult: 1
  }
  param {
    lr_mult: 2
    decay_mult: 0
  }
  convolution_param {
    num_output: 384
    pad: 1
    kernel_size: 3
    weight_filler {
      type: "gaussian"
      std: 0.01
    }
    bias_filler {
      type: "constant"
      value: 0
    }
  }
}
layer {
  name: "relu3"
  type: "ReLU"
  bottom: "conv3"
  top: "conv3"
}
layer {
  name: "conv4"
  type: "Convolution"
  bottom: "conv3"
  top: "conv4"
  param {
    lr_mult: 1
    decay_mult: 1
  }
  param {
    lr_mult: 2
    decay_mult: 0
  }
  convolution_param {
    num_output: 384
    pad: 1
    kernel_size: 3
    group: 2
    weight_filler {
      type: "gaussian"
      std: 0.01
    }
    bias_filler {
      type: "constant"
      value: 0.1
    }
  }
}
layer {
  name: "relu4"
  type: "ReLU"
  bottom: "conv4"
  top: "conv4"
}
layer {
  name: "fc6"
  type: "InnerProduct"
  bottom: "conv4"
  top: "fc6"
  param {
    lr_mult: 1
    decay_mult: 1
  }
  param {
    lr_mult: 2
    decay_mult: 0
  }
  inner_product_param {
    num_output: 4096
    weight_filler {
      type: "gaussian"
      std: 0.005
    }
    bias_filler {
      type: "constant"
      value: 0.1
    }
  }
}
layer {
  name: "relu6"
  type: "ReLU"
  bottom: "fc6"
  top: "fc6"
}
layer {
  name: "drop6"
  type: "Dropout"
  bottom: "fc6"
  top: "fc6"
  dropout_param {
    dropout_ratio: 0.5
  }
}
layer {
  name: "fc7"
  type: "InnerProduct"
  bottom: "fc6"
  top: "fc7"
  param {
    lr_mult: 1
    decay_mult: 1
  }
  param {
    lr_mult: 2
    decay_mult: 0
  }
  inner_product_param {
    num_output: 4096
    weight_filler {
      type: "gaussian"
      std: 0.005
    }
    bias_filler {
      type: "constant"
      value: 0.1
    }
  }
}
layer {
  name: "relu7"
  type: "ReLU"
  bottom: "fc7"
  top: "fc7"
}
layer {
  name: "drop7"
  type: "Dropout"
  bottom: "fc7"
  top: "fc7"
  dropout_param {
    dropout_ratio: 0.5
  }
}
layer {
  name: "fc8"
  type: "InnerProduct"
  bottom: "fc7"
  top: "fc8"
  param {
    lr_mult: 1
    decay_mult: 1
  }
  param {
    lr_mult: 2
    decay_mult: 0
  }
  inner_product_param {
    num_output: 1000
    weight_filler {
      type: "gaussian"
      std: 0.01
    }
    bias_filler {
      type: "constant"
      value: 0
    }
  }
}
layer {
  name: "loss"
  type: "SoftmaxWithLoss"
  bottom: "fc8"
  bottom: "label"
  top: "loss"
}
I0515 16:57:43.667317  6366 layer_factory.hpp:77] Creating layer data
I0515 16:57:43.667526  6366 db_lmdb.cpp:35] Opened lmdb ../caffe/examples/cifar10/cifar10_train_lmdb
I0515 16:57:43.667608  6366 net.cpp:84] Creating Layer data
I0515 16:57:43.667635  6366 net.cpp:380] data -> data
I0515 16:57:43.667670  6366 net.cpp:380] data -> label
I0515 16:57:43.667765  6366 data_transformer.cpp:25] Loading mean file from: ../caffe/examples/cifar10/mean.binaryproto
I0515 16:57:43.668115  6366 data_layer.cpp:45] output data size: 100,3,32,32
I0515 16:57:43.668205  6366 net.cpp:122] Setting up data
I0515 16:57:43.668243  6366 net.cpp:129] Top shape: 100 3 32 32 (307200)
I0515 16:57:43.668251  6366 net.cpp:129] Top shape: 100 (100)
I0515 16:57:43.668254  6366 net.cpp:137] Memory required for data: 1229200
I0515 16:57:43.668261  6366 layer_factory.hpp:77] Creating layer conv1
I0515 16:57:43.668325  6366 net.cpp:84] Creating Layer conv1
I0515 16:57:43.668334  6366 net.cpp:406] conv1 <- data
I0515 16:57:43.668345  6366 net.cpp:380] conv1 -> conv1
I0515 16:57:43.668978  6366 net.cpp:122] Setting up conv1
I0515 16:57:43.668990  6366 net.cpp:129] Top shape: 100 96 6 6 (345600)
I0515 16:57:43.668994  6366 net.cpp:137] Memory required for data: 2611600
I0515 16:57:43.669044  6366 layer_factory.hpp:77] Creating layer relu1
I0515 16:57:43.669072  6366 net.cpp:84] Creating Layer relu1
I0515 16:57:43.669077  6366 net.cpp:406] relu1 <- conv1
I0515 16:57:43.669085  6366 net.cpp:367] relu1 -> conv1 (in-place)
I0515 16:57:43.669106  6366 net.cpp:122] Setting up relu1
I0515 16:57:43.669114  6366 net.cpp:129] Top shape: 100 96 6 6 (345600)
I0515 16:57:43.669117  6366 net.cpp:137] Memory required for data: 3994000
I0515 16:57:43.669121  6366 layer_factory.hpp:77] Creating layer norm1
I0515 16:57:43.669127  6366 net.cpp:84] Creating Layer norm1
I0515 16:57:43.669131  6366 net.cpp:406] norm1 <- conv1
I0515 16:57:43.669137  6366 net.cpp:380] norm1 -> norm1
I0515 16:57:43.669173  6366 net.cpp:122] Setting up norm1
I0515 16:57:43.669180  6366 net.cpp:129] Top shape: 100 96 6 6 (345600)
I0515 16:57:43.669183  6366 net.cpp:137] Memory required for data: 5376400
I0515 16:57:43.669188  6366 layer_factory.hpp:77] Creating layer pool1
I0515 16:57:43.669196  6366 net.cpp:84] Creating Layer pool1
I0515 16:57:43.669200  6366 net.cpp:406] pool1 <- norm1
I0515 16:57:43.669206  6366 net.cpp:380] pool1 -> pool1
I0515 16:57:43.669263  6366 net.cpp:122] Setting up pool1
I0515 16:57:43.669272  6366 net.cpp:129] Top shape: 100 96 3 3 (86400)
I0515 16:57:43.669275  6366 net.cpp:137] Memory required for data: 5722000
I0515 16:57:43.669279  6366 layer_factory.hpp:77] Creating layer conv2
I0515 16:57:43.669294  6366 net.cpp:84] Creating Layer conv2
I0515 16:57:43.669298  6366 net.cpp:406] conv2 <- pool1
I0515 16:57:43.669304  6366 net.cpp:380] conv2 -> conv2
I0515 16:57:43.672778  6366 net.cpp:122] Setting up conv2
I0515 16:57:43.672804  6366 net.cpp:129] Top shape: 100 256 3 3 (230400)
I0515 16:57:43.672809  6366 net.cpp:137] Memory required for data: 6643600
I0515 16:57:43.672818  6366 layer_factory.hpp:77] Creating layer relu2
I0515 16:57:43.672824  6366 net.cpp:84] Creating Layer relu2
I0515 16:57:43.672828  6366 net.cpp:406] relu2 <- conv2
I0515 16:57:43.672834  6366 net.cpp:367] relu2 -> conv2 (in-place)
I0515 16:57:43.672842  6366 net.cpp:122] Setting up relu2
I0515 16:57:43.672847  6366 net.cpp:129] Top shape: 100 256 3 3 (230400)
I0515 16:57:43.672852  6366 net.cpp:137] Memory required for data: 7565200
I0515 16:57:43.672857  6366 layer_factory.hpp:77] Creating layer norm2
I0515 16:57:43.672868  6366 net.cpp:84] Creating Layer norm2
I0515 16:57:43.672871  6366 net.cpp:406] norm2 <- conv2
I0515 16:57:43.672876  6366 net.cpp:380] norm2 -> norm2
I0515 16:57:43.672885  6366 net.cpp:122] Setting up norm2
I0515 16:57:43.672893  6366 net.cpp:129] Top shape: 100 256 3 3 (230400)
I0515 16:57:43.672895  6366 net.cpp:137] Memory required for data: 8486800
I0515 16:57:43.672899  6366 layer_factory.hpp:77] Creating layer pool2
I0515 16:57:43.672905  6366 net.cpp:84] Creating Layer pool2
I0515 16:57:43.672909  6366 net.cpp:406] pool2 <- norm2
I0515 16:57:43.672915  6366 net.cpp:380] pool2 -> pool2
I0515 16:57:43.672924  6366 net.cpp:122] Setting up pool2
I0515 16:57:43.672930  6366 net.cpp:129] Top shape: 100 256 1 1 (25600)
I0515 16:57:43.672933  6366 net.cpp:137] Memory required for data: 8589200
I0515 16:57:43.672937  6366 layer_factory.hpp:77] Creating layer conv3
I0515 16:57:43.672945  6366 net.cpp:84] Creating Layer conv3
I0515 16:57:43.672950  6366 net.cpp:406] conv3 <- pool2
I0515 16:57:43.672955  6366 net.cpp:380] conv3 -> conv3
I0515 16:57:43.684439  6366 net.cpp:122] Setting up conv3
I0515 16:57:43.684484  6366 net.cpp:129] Top shape: 100 384 1 1 (38400)
I0515 16:57:43.684489  6366 net.cpp:137] Memory required for data: 8742800
I0515 16:57:43.684504  6366 layer_factory.hpp:77] Creating layer relu3
I0515 16:57:43.684516  6366 net.cpp:84] Creating Layer relu3
I0515 16:57:43.684522  6366 net.cpp:406] relu3 <- conv3
I0515 16:57:43.684530  6366 net.cpp:367] relu3 -> conv3 (in-place)
I0515 16:57:43.684540  6366 net.cpp:122] Setting up relu3
I0515 16:57:43.684545  6366 net.cpp:129] Top shape: 100 384 1 1 (38400)
I0515 16:57:43.684548  6366 net.cpp:137] Memory required for data: 8896400
I0515 16:57:43.684552  6366 layer_factory.hpp:77] Creating layer conv4
I0515 16:57:43.684566  6366 net.cpp:84] Creating Layer conv4
I0515 16:57:43.684571  6366 net.cpp:406] conv4 <- conv3
I0515 16:57:43.684577  6366 net.cpp:380] conv4 -> conv4
I0515 16:57:43.691944  6366 net.cpp:122] Setting up conv4
I0515 16:57:43.691979  6366 net.cpp:129] Top shape: 100 384 1 1 (38400)
I0515 16:57:43.691983  6366 net.cpp:137] Memory required for data: 9050000
I0515 16:57:43.691992  6366 layer_factory.hpp:77] Creating layer relu4
I0515 16:57:43.692001  6366 net.cpp:84] Creating Layer relu4
I0515 16:57:43.692013  6366 net.cpp:406] relu4 <- conv4
I0515 16:57:43.692021  6366 net.cpp:367] relu4 -> conv4 (in-place)
I0515 16:57:43.692030  6366 net.cpp:122] Setting up relu4
I0515 16:57:43.692035  6366 net.cpp:129] Top shape: 100 384 1 1 (38400)
I0515 16:57:43.692039  6366 net.cpp:137] Memory required for data: 9203600
I0515 16:57:43.692044  6366 layer_factory.hpp:77] Creating layer fc6
I0515 16:57:43.692123  6366 net.cpp:84] Creating Layer fc6
I0515 16:57:43.692137  6366 net.cpp:406] fc6 <- conv4
I0515 16:57:43.692153  6366 net.cpp:380] fc6 -> fc6
I0515 16:57:43.710348  6366 net.cpp:122] Setting up fc6
I0515 16:57:43.710394  6366 net.cpp:129] Top shape: 100 4096 (409600)
I0515 16:57:43.710399  6366 net.cpp:137] Memory required for data: 10842000
I0515 16:57:43.710417  6366 layer_factory.hpp:77] Creating layer relu6
I0515 16:57:43.710435  6366 net.cpp:84] Creating Layer relu6
I0515 16:57:43.710443  6366 net.cpp:406] relu6 <- fc6
I0515 16:57:43.710451  6366 net.cpp:367] relu6 -> fc6 (in-place)
I0515 16:57:43.710463  6366 net.cpp:122] Setting up relu6
I0515 16:57:43.710484  6366 net.cpp:129] Top shape: 100 4096 (409600)
I0515 16:57:43.710501  6366 net.cpp:137] Memory required for data: 12480400
I0515 16:57:43.710505  6366 layer_factory.hpp:77] Creating layer drop6
I0515 16:57:43.710515  6366 net.cpp:84] Creating Layer drop6
I0515 16:57:43.710518  6366 net.cpp:406] drop6 <- fc6
I0515 16:57:43.710523  6366 net.cpp:367] drop6 -> fc6 (in-place)
I0515 16:57:43.710563  6366 net.cpp:122] Setting up drop6
I0515 16:57:43.710571  6366 net.cpp:129] Top shape: 100 4096 (409600)
I0515 16:57:43.710573  6366 net.cpp:137] Memory required for data: 14118800
I0515 16:57:43.710577  6366 layer_factory.hpp:77] Creating layer fc7
I0515 16:57:43.710595  6366 net.cpp:84] Creating Layer fc7
I0515 16:57:43.710600  6366 net.cpp:406] fc7 <- fc6
I0515 16:57:43.710608  6366 net.cpp:380] fc7 -> fc7
I0515 16:57:43.896509  6366 net.cpp:122] Setting up fc7
I0515 16:57:43.896561  6366 net.cpp:129] Top shape: 100 4096 (409600)
I0515 16:57:43.896566  6366 net.cpp:137] Memory required for data: 15757200
I0515 16:57:43.896579  6366 layer_factory.hpp:77] Creating layer relu7
I0515 16:57:43.896591  6366 net.cpp:84] Creating Layer relu7
I0515 16:57:43.896597  6366 net.cpp:406] relu7 <- fc7
I0515 16:57:43.896612  6366 net.cpp:367] relu7 -> fc7 (in-place)
I0515 16:57:43.896625  6366 net.cpp:122] Setting up relu7
I0515 16:57:43.896631  6366 net.cpp:129] Top shape: 100 4096 (409600)
I0515 16:57:43.896634  6366 net.cpp:137] Memory required for data: 17395600
I0515 16:57:43.896638  6366 layer_factory.hpp:77] Creating layer drop7
I0515 16:57:43.896646  6366 net.cpp:84] Creating Layer drop7
I0515 16:57:43.896651  6366 net.cpp:406] drop7 <- fc7
I0515 16:57:43.896656  6366 net.cpp:367] drop7 -> fc7 (in-place)
I0515 16:57:43.896662  6366 net.cpp:122] Setting up drop7
I0515 16:57:43.896667  6366 net.cpp:129] Top shape: 100 4096 (409600)
I0515 16:57:43.896672  6366 net.cpp:137] Memory required for data: 19034000
I0515 16:57:43.896675  6366 layer_factory.hpp:77] Creating layer fc8
I0515 16:57:43.896685  6366 net.cpp:84] Creating Layer fc8
I0515 16:57:43.896689  6366 net.cpp:406] fc8 <- fc7
I0515 16:57:43.896697  6366 net.cpp:380] fc8 -> fc8
I0515 16:57:43.948012  6366 net.cpp:122] Setting up fc8
I0515 16:57:43.948071  6366 net.cpp:129] Top shape: 100 1000 (100000)
I0515 16:57:43.948091  6366 net.cpp:137] Memory required for data: 19434000
I0515 16:57:43.948107  6366 layer_factory.hpp:77] Creating layer loss
I0515 16:57:43.948137  6366 net.cpp:84] Creating Layer loss
I0515 16:57:43.948144  6366 net.cpp:406] loss <- fc8
I0515 16:57:43.948153  6366 net.cpp:406] loss <- label
I0515 16:57:43.948163  6366 net.cpp:380] loss -> loss
I0515 16:57:43.948213  6366 layer_factory.hpp:77] Creating layer loss
…
I0515 16:57:43.950402  6366 net.cpp:294] The NetState phase (1) differed from the phase (0) specified by a rule in layer data
I0515 16:57:43.950570  6366 net.cpp:51] Initializing net from parameters: 
name: "AlexNet"
state {
  phase: TEST
}
layer {
  name: "data"
  type: "Data"
  top: "data"
  top: "label"
  include {
    phase: TEST
  }
  transform_param {
    mirror: false
    crop_size: 32
    mean_file: "../caffe/examples/cifar10/mean.binaryproto"
  }
  data_param {
    source: "../caffe/examples/cifar10/cifar10_test_lmdb"
    batch_size: 100
    backend: LMDB
  }
}
layer {
  name: "conv1"
  type: "Convolution"
  bottom: "data"
  top: "conv1"
  param {
    lr_mult: 1
    decay_mult: 1
  }
  param {
    lr_mult: 2
    decay_mult: 0
  }
  convolution_param {
    num_output: 96
    kernel_size: 11
    stride: 4
    weight_filler {
      type: "gaussian"
      std: 0.01
    }
    bias_filler {
      type: "constant"
      value: 0
    }
  }
}
layer {
  name: "relu1"
  type: "ReLU"
  bottom: "conv1"
  top: "conv1"
}
layer {
  name: "norm1"
  type: "LRN"
  bottom: "conv1"
  top: "norm1"
  lrn_param {
    local_size: 5
    alpha: 0.0001
    beta: 0.75
  }
}
layer {
  name: "pool1"
  type: "Pooling"
  bottom: "norm1"
  top: "pool1"
  pooling_param {
    pool: MAX
    kernel_size: 3
    stride: 2
  }
}
layer {
  name: "conv2"
  type: "Convolution"
  bottom: "pool1"
  top: "conv2"
  param {
    lr_mult: 1
    decay_mult: 1
  }
  param {
    lr_mult: 2
    decay_mult: 0
  }
  convolution_param {
    num_output: 256
    pad: 2
    kernel_size: 5
    group: 2
    weight_filler {
      type: "gaussian"
      std: 0.01
    }
    bias_filler {
      type: "constant"
      value: 0.1
    }
  }
}
layer {
  name: "relu2"
  type: "ReLU"
  bottom: "conv2"
  top: "conv2"
}
layer {
  name: "norm2"
  type: "LRN"
  bottom: "conv2"
  top: "norm2"
  lrn_param {
    local_size: 5
    alpha: 0.0001
    beta: 0.75
  }
}
layer {
  name: "pool2"
  type: "Pooling"
  bottom: "norm2"
  top: "pool2"
  pooling_param {
    pool: MAX
    kernel_size: 3
    stride: 2
  }
}
layer {
  name: "conv3"
  type: "Convolution"
  bottom: "pool2"
  top: "conv3"
  param {
    lr_mult: 1
    decay_mult: 1
  }
  param {
    lr_mult: 2
    decay_mult: 0
  }
  convolution_param {
    num_output: 384
    pad: 1
    kernel_size: 3
    weight_filler {
      type: "gaussian"
      std: 0.01
    }
    bias_filler {
      type: "constant"
      value: 0
    }
  }
}
layer {
  name: "relu3"
  type: "ReLU"
  bottom: "conv3"
  top: "conv3"
}
layer {
  name: "conv4"
  type: "Convolution"
  bottom: "conv3"
  top: "conv4"
  param {
    lr_mult: 1
    decay_mult: 1
  }
  param {
    lr_mult: 2
    decay_mult: 0
  }
  convolution_param {
    num_output: 384
    pad: 1
    kernel_size: 3
    group: 2
    weight_filler {
      type: "gaussian"
      std: 0.01
    }
    bias_filler {
      type: "constant"
      value: 0.1
    }
  }
}
layer {
  name: "relu4"
  type: "ReLU"
  bottom: "conv4"
  top: "conv4"
}
layer {
  name: "fc6"
  type: "InnerProduct"
  bottom: "conv4"
  top: "fc6"
  param {
    lr_mult: 1
    decay_mult: 1
  }
  param {
    lr_mult: 2
    decay_mult: 0
  }
  inner_product_param {
    num_output: 4096
    weight_filler {
      type: "gaussian"
      std: 0.005
    }
    bias_filler {
      type: "constant"
      value: 0.1
    }
  }
}
layer {
  name: "relu6"
  type: "ReLU"
  bottom: "fc6"
  top: "fc6"
}
layer {
  name: "drop6"
  type: "Dropout"
  bottom: "fc6"
  top: "fc6"
  dropout_param {
    dropout_ratio: 0.5
  }
}
layer {
  name: "fc7"
  type: "InnerProduct"
  bottom: "fc6"
  top: "fc7"
  param {
    lr_mult: 1
    decay_mult: 1
  }
  param {
    lr_mult: 2
    decay_mult: 0
  }
  inner_product_param {
    num_output: 4096
    weight_filler {
      type: "gaussian"
      std: 0.005
    }
    bias_filler {
      type: "constant"
      value: 0.1
    }
  }
}
layer {
  name: "relu7"
  type: "ReLU"
  bottom: "fc7"
  top: "fc7"
}
layer {
  name: "drop7"
  type: "Dropout"
  bottom: "fc7"
  top: "fc7"
  dropout_param {
    dropout_ratio: 0.5
  }
}
layer {
  name: "fc8"
  type: "InnerProduct"
  bottom: "fc7"
  top: "fc8"
  param {
    lr_mult: 1
    decay_mult: 1
  }
  param {
    lr_mult: 2
    decay_mult: 0
  }
  inner_product_param {
    num_output: 1000
    weight_filler {
      type: "gaussian"
      std: 0.01
    }
    bias_filler {
      type: "constant"
      value: 0
    }
  }
}
layer {
  name: "accuracy"
  type: "Accuracy"
  bottom: "fc8"
  bottom: "label"
  top: "accuracy"
  include {
    phase: TEST
  }
}
layer {
  name: "accuracy_top_5"
  type: "Accuracy"
  bottom: "fc8"
  bottom: "label"
  top: "accuracy_top_5"
  include {
    phase: TEST
  }
  accuracy_param {
    top_k: 5
  }
}
layer {
  name: "loss"
  type: "SoftmaxWithLoss"
  bottom: "fc8"
  bottom: "label"
  top: "loss"
}
I0515 16:57:43.950784  6366 layer_factory.hpp:77] Creating layer data
I0515 16:57:43.950911  6366 db_lmdb.cpp:35] Opened lmdb ../caffe/examples/cifar10/cifar10_test_lmdb
I0515 16:57:43.950932  6366 net.cpp:84] Creating Layer data
I0515 16:57:43.950939  6366 net.cpp:380] data -> data
I0515 16:57:43.950948  6366 net.cpp:380] data -> label
I0515 16:57:43.950979  6366 data_transformer.cpp:25] Loading mean file from: ../caffe/examples/cifar10/mean.binaryproto
I0515 16:57:43.951141  6366 data_layer.cpp:45] output data size: 100,3,32,32
I0515 16:57:43.951303  6366 net.cpp:122] Setting up data
I0515 16:57:43.951314  6366 net.cpp:129] Top shape: 100 3 32 32 (307200)
I0515 16:57:43.951319  6366 net.cpp:129] Top shape: 100 (100)
I0515 16:57:43.951323  6366 net.cpp:137] Memory required for data: 1229200
I0515 16:57:43.951326  6366 layer_factory.hpp:77] Creating layer label_data_1_split
I0515 16:57:43.951352  6366 net.cpp:84] Creating Layer label_data_1_split
I0515 16:57:43.951359  6366 net.cpp:406] label_data_1_split <- label
I0515 16:57:43.951365  6366 net.cpp:380] label_data_1_split -> label_data_1_split_0
I0515 16:57:43.951373  6366 net.cpp:380] label_data_1_split -> label_data_1_split_1
I0515 16:57:43.951380  6366 net.cpp:380] label_data_1_split -> label_data_1_split_2
I0515 16:57:43.951390  6366 net.cpp:122] Setting up label_data_1_split
I0515 16:57:43.951395  6366 net.cpp:129] Top shape: 100 (100)
I0515 16:57:43.951398  6366 net.cpp:129] Top shape: 100 (100)
I0515 16:57:43.951405  6366 net.cpp:129] Top shape: 100 (100)
I0515 16:57:43.951407  6366 net.cpp:137] Memory required for data: 1230400
I0515 16:57:43.951411  6366 layer_factory.hpp:77] Creating layer conv1
I0515 16:57:43.951442  6366 net.cpp:84] Creating Layer conv1
I0515 16:57:43.951447  6366 net.cpp:406] conv1 <- data
I0515 16:57:43.951454  6366 net.cpp:380] conv1 -> conv1
I0515 16:57:43.952464  6366 net.cpp:122] Setting up conv1
I0515 16:57:43.952479  6366 net.cpp:129] Top shape: 100 96 6 6 (345600)
I0515 16:57:43.952483  6366 net.cpp:137] Memory required for data: 2612800
I0515 16:57:43.952494  6366 layer_factory.hpp:77] Creating layer relu1
I0515 16:57:43.952502  6366 net.cpp:84] Creating Layer relu1
I0515 16:57:43.952505  6366 net.cpp:406] relu1 <- conv1
I0515 16:57:43.952531  6366 net.cpp:367] relu1 -> conv1 (in-place)
I0515 16:57:43.952553  6366 net.cpp:122] Setting up relu1
I0515 16:57:43.952559  6366 net.cpp:129] Top shape: 100 96 6 6 (345600)
I0515 16:57:43.952563  6366 net.cpp:137] Memory required for data: 3995200
I0515 16:57:43.952565  6366 layer_factory.hpp:77] Creating layer norm1
I0515 16:57:43.952595  6366 net.cpp:84] Creating Layer norm1
I0515 16:57:43.952625  6366 net.cpp:406] norm1 <- conv1
I0515 16:57:43.952631  6366 net.cpp:380] norm1 -> norm1
I0515 16:57:43.952639  6366 net.cpp:122] Setting up norm1
I0515 16:57:43.952646  6366 net.cpp:129] Top shape: 100 96 6 6 (345600)
I0515 16:57:43.952648  6366 net.cpp:137] Memory required for data: 5377600
I0515 16:57:43.952652  6366 layer_factory.hpp:77] Creating layer pool1
I0515 16:57:43.952657  6366 net.cpp:84] Creating Layer pool1
I0515 16:57:43.952661  6366 net.cpp:406] pool1 <- norm1
I0515 16:57:43.952689  6366 net.cpp:380] pool1 -> pool1
I0515 16:57:43.952702  6366 net.cpp:122] Setting up pool1
I0515 16:57:43.952706  6366 net.cpp:129] Top shape: 100 96 3 3 (86400)
I0515 16:57:43.952710  6366 net.cpp:137] Memory required for data: 5723200
I0515 16:57:43.952713  6366 layer_factory.hpp:77] Creating layer conv2
I0515 16:57:43.952721  6366 net.cpp:84] Creating Layer conv2
I0515 16:57:43.952725  6366 net.cpp:406] conv2 <- pool1
I0515 16:57:43.952749  6366 net.cpp:380] conv2 -> conv2
I0515 16:57:43.960038  6366 net.cpp:122] Setting up conv2
I0515 16:57:43.960070  6366 net.cpp:129] Top shape: 100 256 3 3 (230400)
I0515 16:57:43.960074  6366 net.cpp:137] Memory required for data: 6644800
I0515 16:57:43.960099  6366 layer_factory.hpp:77] Creating layer relu2
I0515 16:57:43.960109  6366 net.cpp:84] Creating Layer relu2
I0515 16:57:43.960114  6366 net.cpp:406] relu2 <- conv2
I0515 16:57:43.960121  6366 net.cpp:367] relu2 -> conv2 (in-place)
I0515 16:57:43.960130  6366 net.cpp:122] Setting up relu2
I0515 16:57:43.960135  6366 net.cpp:129] Top shape: 100 256 3 3 (230400)
I0515 16:57:43.960139  6366 net.cpp:137] Memory required for data: 7566400
I0515 16:57:43.960142  6366 layer_factory.hpp:77] Creating layer norm2
I0515 16:57:43.960172  6366 net.cpp:84] Creating Layer norm2
I0515 16:57:43.960178  6366 net.cpp:406] norm2 <- conv2
I0515 16:57:43.960186  6366 net.cpp:380] norm2 -> norm2
I0515 16:57:43.960194  6366 net.cpp:122] Setting up norm2
I0515 16:57:43.960199  6366 net.cpp:129] Top shape: 100 256 3 3 (230400)
I0515 16:57:43.960203  6366 net.cpp:137] Memory required for data: 8488000
I0515 16:57:43.960206  6366 layer_factory.hpp:77] Creating layer pool2
I0515 16:57:43.960212  6366 net.cpp:84] Creating Layer pool2
I0515 16:57:43.960216  6366 net.cpp:406] pool2 <- norm2
I0515 16:57:43.960222  6366 net.cpp:380] pool2 -> pool2
I0515 16:57:43.960229  6366 net.cpp:122] Setting up pool2
I0515 16:57:43.960234  6366 net.cpp:129] Top shape: 100 256 1 1 (25600)
I0515 16:57:43.960238  6366 net.cpp:137] Memory required for data: 8590400
I0515 16:57:43.960242  6366 layer_factory.hpp:77] Creating layer conv3
I0515 16:57:43.960273  6366 net.cpp:84] Creating Layer conv3
I0515 16:57:43.960278  6366 net.cpp:406] conv3 <- pool2
I0515 16:57:43.960285  6366 net.cpp:380] conv3 -> conv3
I0515 16:57:43.974697  6366 net.cpp:122] Setting up conv3
I0515 16:57:43.974736  6366 net.cpp:129] Top shape: 100 384 1 1 (38400)
I0515 16:57:43.974740  6366 net.cpp:137] Memory required for data: 8744000
I0515 16:57:43.974755  6366 layer_factory.hpp:77] Creating layer relu3
I0515 16:57:43.974773  6366 net.cpp:84] Creating Layer relu3
I0515 16:57:43.974781  6366 net.cpp:406] relu3 <- conv3
I0515 16:57:43.974789  6366 net.cpp:367] relu3 -> conv3 (in-place)
I0515 16:57:43.974798  6366 net.cpp:122] Setting up relu3
I0515 16:57:43.974804  6366 net.cpp:129] Top shape: 100 384 1 1 (38400)
I0515 16:57:43.974807  6366 net.cpp:137] Memory required for data: 8897600
I0515 16:57:43.974812  6366 layer_factory.hpp:77] Creating layer conv4
I0515 16:57:43.974822  6366 net.cpp:84] Creating Layer conv4
I0515 16:57:43.974827  6366 net.cpp:406] conv4 <- conv3
I0515 16:57:43.974839  6366 net.cpp:380] conv4 -> conv4
I0515 16:57:43.983669  6366 net.cpp:122] Setting up conv4
I0515 16:57:43.983708  6366 net.cpp:129] Top shape: 100 384 1 1 (38400)
I0515 16:57:43.983713  6366 net.cpp:137] Memory required for data: 9051200
I0515 16:57:43.983722  6366 layer_factory.hpp:77] Creating layer relu4
I0515 16:57:43.983732  6366 net.cpp:84] Creating Layer relu4
I0515 16:57:43.983752  6366 net.cpp:406] relu4 <- conv4
I0515 16:57:43.983773  6366 net.cpp:367] relu4 -> conv4 (in-place)
I0515 16:57:43.983783  6366 net.cpp:122] Setting up relu4
I0515 16:57:43.983788  6366 net.cpp:129] Top shape: 100 384 1 1 (38400)
I0515 16:57:43.983791  6366 net.cpp:137] Memory required for data: 9204800
I0515 16:57:43.983794  6366 layer_factory.hpp:77] Creating layer fc6
I0515 16:57:43.983803  6366 net.cpp:84] Creating Layer fc6
I0515 16:57:43.983808  6366 net.cpp:406] fc6 <- conv4
I0515 16:57:43.983824  6366 net.cpp:380] fc6 -> fc6
I0515 16:57:44.002445  6366 net.cpp:122] Setting up fc6
I0515 16:57:44.002492  6366 net.cpp:129] Top shape: 100 4096 (409600)
I0515 16:57:44.002497  6366 net.cpp:137] Memory required for data: 10843200
I0515 16:57:44.002514  6366 layer_factory.hpp:77] Creating layer relu6
I0515 16:57:44.002526  6366 net.cpp:84] Creating Layer relu6
I0515 16:57:44.002532  6366 net.cpp:406] relu6 <- fc6
I0515 16:57:44.002544  6366 net.cpp:367] relu6 -> fc6 (in-place)
I0515 16:57:44.002557  6366 net.cpp:122] Setting up relu6
I0515 16:57:44.002562  6366 net.cpp:129] Top shape: 100 4096 (409600)
I0515 16:57:44.002565  6366 net.cpp:137] Memory required for data: 12481600
I0515 16:57:44.002569  6366 layer_factory.hpp:77] Creating layer drop6
I0515 16:57:44.002588  6366 net.cpp:84] Creating Layer drop6
I0515 16:57:44.002593  6366 net.cpp:406] drop6 <- fc6
I0515 16:57:44.002599  6366 net.cpp:367] drop6 -> fc6 (in-place)
I0515 16:57:44.002606  6366 net.cpp:122] Setting up drop6
I0515 16:57:44.002612  6366 net.cpp:129] Top shape: 100 4096 (409600)
I0515 16:57:44.002615  6366 net.cpp:137] Memory required for data: 14120000
I0515 16:57:44.002619  6366 layer_factory.hpp:77] Creating layer fc7
I0515 16:57:44.002629  6366 net.cpp:84] Creating Layer fc7
I0515 16:57:44.002632  6366 net.cpp:406] fc7 <- fc6
I0515 16:57:44.002645  6366 net.cpp:380] fc7 -> fc7
I0515 16:57:44.194531  6366 net.cpp:122] Setting up fc7
I0515 16:57:44.194586  6366 net.cpp:129] Top shape: 100 4096 (409600)
I0515 16:57:44.194591  6366 net.cpp:137] Memory required for data: 15758400
I0515 16:57:44.194604  6366 layer_factory.hpp:77] Creating layer relu7
I0515 16:57:44.194623  6366 net.cpp:84] Creating Layer relu7
I0515 16:57:44.194630  6366 net.cpp:406] relu7 <- fc7
I0515 16:57:44.194638  6366 net.cpp:367] relu7 -> fc7 (in-place)
I0515 16:57:44.194651  6366 net.cpp:122] Setting up relu7
I0515 16:57:44.194656  6366 net.cpp:129] Top shape: 100 4096 (409600)
I0515 16:57:44.194660  6366 net.cpp:137] Memory required for data: 17396800
I0515 16:57:44.194664  6366 layer_factory.hpp:77] Creating layer drop7
I0515 16:57:44.194671  6366 net.cpp:84] Creating Layer drop7
I0515 16:57:44.194675  6366 net.cpp:406] drop7 <- fc7
I0515 16:57:44.194686  6366 net.cpp:367] drop7 -> fc7 (in-place)
I0515 16:57:44.194696  6366 net.cpp:122] Setting up drop7
I0515 16:57:44.194701  6366 net.cpp:129] Top shape: 100 4096 (409600)
I0515 16:57:44.194705  6366 net.cpp:137] Memory required for data: 19035200
I0515 16:57:44.194710  6366 layer_factory.hpp:77] Creating layer fc8
I0515 16:57:44.194718  6366 net.cpp:84] Creating Layer fc8
I0515 16:57:44.194722  6366 net.cpp:406] fc8 <- fc7
I0515 16:57:44.194728  6366 net.cpp:380] fc8 -> fc8
I0515 16:57:44.241271  6366 net.cpp:122] Setting up fc8
I0515 16:57:44.241333  6366 net.cpp:129] Top shape: 100 1000 (100000)
I0515 16:57:44.241339  6366 net.cpp:137] Memory required for data: 19435200
I0515 16:57:44.241353  6366 layer_factory.hpp:77] Creating layer fc8_fc8_0_split
I0515 16:57:44.241366  6366 net.cpp:84] Creating Layer fc8_fc8_0_split
I0515 16:57:44.241372  6366 net.cpp:406] fc8_fc8_0_split <- fc8
I0515 16:57:44.241384  6366 net.cpp:380] fc8_fc8_0_split -> fc8_fc8_0_split_0
I0515 16:57:44.241397  6366 net.cpp:380] fc8_fc8_0_split -> fc8_fc8_0_split_1
I0515 16:57:44.241405  6366 net.cpp:380] fc8_fc8_0_split -> fc8_fc8_0_split_2
I0515 16:57:44.241416  6366 net.cpp:122] Setting up fc8_fc8_0_split
I0515 16:57:44.241423  6366 net.cpp:129] Top shape: 100 1000 (100000)
I0515 16:57:44.241427  6366 net.cpp:129] Top shape: 100 1000 (100000)
I0515 16:57:44.241442  6366 net.cpp:129] Top shape: 100 1000 (100000)
I0515 16:57:44.241454  6366 net.cpp:137] Memory required for data: 20635200
I0515 16:57:44.241458  6366 layer_factory.hpp:77] Creating layer accuracy
I0515 16:57:44.241489  6366 net.cpp:84] Creating Layer accuracy
I0515 16:57:44.241495  6366 net.cpp:406] accuracy <- fc8_fc8_0_split_0
I0515 16:57:44.241500  6366 net.cpp:406] accuracy <- label_data_1_split_0
I0515 16:57:44.241564  6366 net.cpp:380] accuracy -> accuracy
…
