…
I0515 19:18:31.652331  6710 net.cpp:294] The NetState phase (0) differed from the phase (1) specified by a rule in layer accuracy_top_5
I0515 19:18:31.652554  6710 net.cpp:51] Initializing net from parameters: 
name: "AlexNet"
state {
  phase: TRAIN
  level: 0
  stage: ""
}
layer {
  name: "data"
  type: "Data"
  top: "data"
  top: "label"
  include {
    phase: TRAIN
  }
  transform_param {
    mirror: true
    crop_size: 32
    mean_file: "../caffe/examples/cifar10/mean.binaryproto"
  }
  data_param {
    source: "../caffe/examples/cifar10/cifar10_train_lmdb"
    batch_size: 100
    backend: LMDB
  }
}
layer {
  name: "conv1"
  type: "Convolution"
  bottom: "data"
  top: "conv1"
  param {
    lr_mult: 1
    decay_mult: 1
  }
  param {
    lr_mult: 2
    decay_mult: 0
  }
  convolution_param {
    num_output: 96
    kernel_size: 11
    stride: 4
    weight_filler {
      type: "gaussian"
      std: 0.01
    }
    bias_filler {
      type: "constant"
      value: 0
    }
  }
}
layer {
  name: "relu1"
  type: "ReLU"
  bottom: "conv1"
  top: "conv1"
}
layer {
  name: "norm1"
  type: "LRN"
  bottom: "conv1"
  top: "norm1"
  lrn_param {
    local_size: 5
    alpha: 0.0001
    beta: 0.75
  }
}
layer {
  name: "pool1"
  type: "Pooling"
  bottom: "norm1"
  top: "pool1"
  pooling_param {
    pool: MAX
    kernel_size: 3
    stride: 2
  }
}
layer {
  name: "conv2"
  type: "Convolution"
  bottom: "pool1"
  top: "conv2"
  param {
    lr_mult: 1
    decay_mult: 1
  }
  param {
    lr_mult: 2
    decay_mult: 0
  }
  convolution_param {
    num_output: 256
    pad: 2
    kernel_size: 5
    group: 2
    weight_filler {
      type: "gaussian"
      std: 0.01
    }
    bias_filler {
      type: "constant"
      value: 0.1
    }
  }
}
layer {
  name: "relu2"
  type: "ReLU"
  bottom: "conv2"
  top: "conv2"
}
layer {
  name: "norm2"
  type: "LRN"
  bottom: "conv2"
  top: "norm2"
  lrn_param {
    local_size: 5
    alpha: 0.0001
    beta: 0.75
  }
}
layer {
  name: "pool2"
  type: "Pooling"
  bottom: "norm2"
  top: "pool2"
  pooling_param {
    pool: MAX
    kernel_size: 3
    stride: 2
  }
}
layer {
  name: "conv3"
  type: "Convolution"
  bottom: "pool2"
  top: "conv3"
  param {
    lr_mult: 1
    decay_mult: 1
  }
  param {
    lr_mult: 2
    decay_mult: 0
  }
  convolution_param {
    num_output: 384
    pad: 1
    kernel_size: 3
    weight_filler {
      type: "gaussian"
      std: 0.01
    }
    bias_filler {
      type: "constant"
      value: 0
    }
  }
}
layer {
  name: "relu3"
  type: "ReLU"
  bottom: "conv3"
  top: "conv3"
}
layer {
  name: "conv4"
  type: "Convolution"
  bottom: "conv3"
  top: "conv4"
  param {
    lr_mult: 1
    decay_mult: 1
  }
  param {
    lr_mult: 2
    decay_mult: 0
  }
  convolution_param {
    num_output: 384
    pad: 1
    kernel_size: 3
    group: 2
    weight_filler {
      type: "gaussian"
      std: 0.01
    }
    bias_filler {
      type: "constant"
      value: 0.1
    }
  }
}
layer {
  name: "relu4"
  type: "ReLU"
  bottom: "conv4"
  top: "conv4"
}
layer {
  name: "fc6"
  type: "InnerProduct"
  bottom: "conv4"
  top: "fc6"
  param {
    lr_mult: 1
    decay_mult: 1
  }
  param {
    lr_mult: 2
    decay_mult: 0
  }
  inner_product_param {
    num_output: 4096
    weight_filler {
      type: "gaussian"
      std: 0.005
    }
    bias_filler {
      type: "constant"
      value: 0.1
    }
  }
}
layer {
  name: "relu6"
  type: "ReLU"
  bottom: "fc6"
  top: "fc6"
}
layer {
  name: "drop6"
  type: "Dropout"
  bottom: "fc6"
  top: "fc6"
  dropout_param {
    dropout_ratio: 0.5
  }
}
layer {
  name: "fc7"
  type: "InnerProduct"
  bottom: "fc6"
  top: "fc7"
  param {
    lr_mult: 1
    decay_mult: 1
  }
  param {
    lr_mult: 2
    decay_mult: 0
  }
  inner_product_param {
    num_output: 4096
    weight_filler {
      type: "gaussian"
      std: 0.005
    }
    bias_filler {
      type: "constant"
      value: 0.1
    }
  }
}
layer {
  name: "relu7"
  type: "ReLU"
  bottom: "fc7"
  top: "fc7"
}
layer {
  name: "drop7"
  type: "Dropout"
  bottom: "fc7"
  top: "fc7"
  dropout_param {
    dropout_ratio: 0.5
  }
}
layer {
  name: "fc8"
  type: "InnerProduct"
  bottom: "fc7"
  top: "fc8"
  param {
    lr_mult: 1
    decay_mult: 1
  }
  param {
    lr_mult: 2
    decay_mult: 0
  }
  inner_product_param {
    num_output: 10
    weight_filler {
      type: "gaussian"
      std: 0.01
    }
    bias_filler {
      type: "constant"
      value: 0
    }
  }
}
layer {
  name: "loss"
  type: "SoftmaxWithLoss"
  bottom: "fc8"
  bottom: "label"
  top: "loss"
}
I0515 19:18:31.652770  6710 layer_factory.hpp:77] Creating layer data
I0515 19:18:31.653070  6710 db_lmdb.cpp:35] Opened lmdb ../caffe/examples/cifar10/cifar10_train_lmdb
I0515 19:18:31.653172  6710 net.cpp:84] Creating Layer data
I0515 19:18:31.653203  6710 net.cpp:380] data -> data
I0515 19:18:31.653245  6710 net.cpp:380] data -> label
I0515 19:18:31.653316  6710 data_transformer.cpp:25] Loading mean file from: ../caffe/examples/cifar10/mean.binaryproto
I0515 19:18:31.653568  6710 data_layer.cpp:45] output data size: 100,3,32,32
I0515 19:18:31.653657  6710 net.cpp:122] Setting up data
I0515 19:18:31.653697  6710 net.cpp:129] Top shape: 100 3 32 32 (307200)
I0515 19:18:31.653705  6710 net.cpp:129] Top shape: 100 (100)
I0515 19:18:31.653710  6710 net.cpp:137] Memory required for data: 1229200
I0515 19:18:31.653719  6710 layer_factory.hpp:77] Creating layer conv1
I0515 19:18:31.653767  6710 net.cpp:84] Creating Layer conv1
I0515 19:18:31.653786  6710 net.cpp:406] conv1 <- data
I0515 19:18:31.653811  6710 net.cpp:380] conv1 -> conv1
I0515 19:18:31.654570  6710 net.cpp:122] Setting up conv1
I0515 19:18:31.654584  6710 net.cpp:129] Top shape: 100 96 6 6 (345600)
I0515 19:18:31.654590  6710 net.cpp:137] Memory required for data: 2611600
I0515 19:18:31.654641  6710 layer_factory.hpp:77] Creating layer relu1
I0515 19:18:31.654671  6710 net.cpp:84] Creating Layer relu1
I0515 19:18:31.654680  6710 net.cpp:406] relu1 <- conv1
I0515 19:18:31.654687  6710 net.cpp:367] relu1 -> conv1 (in-place)
I0515 19:18:31.654697  6710 net.cpp:122] Setting up relu1
I0515 19:18:31.654706  6710 net.cpp:129] Top shape: 100 96 6 6 (345600)
I0515 19:18:31.654711  6710 net.cpp:137] Memory required for data: 3994000
I0515 19:18:31.654716  6710 layer_factory.hpp:77] Creating layer norm1
I0515 19:18:31.654722  6710 net.cpp:84] Creating Layer norm1
I0515 19:18:31.654727  6710 net.cpp:406] norm1 <- conv1
I0515 19:18:31.654734  6710 net.cpp:380] norm1 -> norm1
I0515 19:18:31.654748  6710 net.cpp:122] Setting up norm1
I0515 19:18:31.654755  6710 net.cpp:129] Top shape: 100 96 6 6 (345600)
I0515 19:18:31.654760  6710 net.cpp:137] Memory required for data: 5376400
I0515 19:18:31.654765  6710 layer_factory.hpp:77] Creating layer pool1
I0515 19:18:31.654783  6710 net.cpp:84] Creating Layer pool1
I0515 19:18:31.654789  6710 net.cpp:406] pool1 <- norm1
I0515 19:18:31.654798  6710 net.cpp:380] pool1 -> pool1
I0515 19:18:31.654832  6710 net.cpp:122] Setting up pool1
I0515 19:18:31.654844  6710 net.cpp:129] Top shape: 100 96 3 3 (86400)
I0515 19:18:31.654848  6710 net.cpp:137] Memory required for data: 5722000
I0515 19:18:31.654853  6710 layer_factory.hpp:77] Creating layer conv2
I0515 19:18:31.654867  6710 net.cpp:84] Creating Layer conv2
I0515 19:18:31.654872  6710 net.cpp:406] conv2 <- pool1
I0515 19:18:31.654881  6710 net.cpp:380] conv2 -> conv2
I0515 19:18:31.671041  6710 net.cpp:122] Setting up conv2
I0515 19:18:31.671105  6710 net.cpp:129] Top shape: 100 256 3 3 (230400)
I0515 19:18:31.671111  6710 net.cpp:137] Memory required for data: 6643600
I0515 19:18:31.671130  6710 layer_factory.hpp:77] Creating layer relu2
I0515 19:18:31.671144  6710 net.cpp:84] Creating Layer relu2
I0515 19:18:31.671150  6710 net.cpp:406] relu2 <- conv2
I0515 19:18:31.671160  6710 net.cpp:367] relu2 -> conv2 (in-place)
I0515 19:18:31.671172  6710 net.cpp:122] Setting up relu2
I0515 19:18:31.671180  6710 net.cpp:129] Top shape: 100 256 3 3 (230400)
I0515 19:18:31.671185  6710 net.cpp:137] Memory required for data: 7565200
I0515 19:18:31.671190  6710 layer_factory.hpp:77] Creating layer norm2
I0515 19:18:31.671201  6710 net.cpp:84] Creating Layer norm2
I0515 19:18:31.671207  6710 net.cpp:406] norm2 <- conv2
I0515 19:18:31.671216  6710 net.cpp:380] norm2 -> norm2
I0515 19:18:31.671233  6710 net.cpp:122] Setting up norm2
I0515 19:18:31.671248  6710 net.cpp:129] Top shape: 100 256 3 3 (230400)
I0515 19:18:31.671253  6710 net.cpp:137] Memory required for data: 8486800
I0515 19:18:31.671259  6710 layer_factory.hpp:77] Creating layer pool2
I0515 19:18:31.671269  6710 net.cpp:84] Creating Layer pool2
I0515 19:18:31.671274  6710 net.cpp:406] pool2 <- norm2
I0515 19:18:31.671283  6710 net.cpp:380] pool2 -> pool2
I0515 19:18:31.671298  6710 net.cpp:122] Setting up pool2
I0515 19:18:31.671305  6710 net.cpp:129] Top shape: 100 256 1 1 (25600)
I0515 19:18:31.671310  6710 net.cpp:137] Memory required for data: 8589200
I0515 19:18:31.671316  6710 layer_factory.hpp:77] Creating layer conv3
I0515 19:18:31.671329  6710 net.cpp:84] Creating Layer conv3
I0515 19:18:31.671335  6710 net.cpp:406] conv3 <- pool2
I0515 19:18:31.671344  6710 net.cpp:380] conv3 -> conv3
I0515 19:18:31.698160  6710 net.cpp:122] Setting up conv3
I0515 19:18:31.698212  6710 net.cpp:129] Top shape: 100 384 1 1 (38400)
I0515 19:18:31.698218  6710 net.cpp:137] Memory required for data: 8742800
I0515 19:18:31.698238  6710 layer_factory.hpp:77] Creating layer relu3
I0515 19:18:31.698253  6710 net.cpp:84] Creating Layer relu3
I0515 19:18:31.698261  6710 net.cpp:406] relu3 <- conv3
I0515 19:18:31.698271  6710 net.cpp:367] relu3 -> conv3 (in-place)
I0515 19:18:31.698283  6710 net.cpp:122] Setting up relu3
I0515 19:18:31.698292  6710 net.cpp:129] Top shape: 100 384 1 1 (38400)
I0515 19:18:31.698297  6710 net.cpp:137] Memory required for data: 8896400
I0515 19:18:31.698302  6710 layer_factory.hpp:77] Creating layer conv4
I0515 19:18:31.698320  6710 net.cpp:84] Creating Layer conv4
I0515 19:18:31.698326  6710 net.cpp:406] conv4 <- conv3
I0515 19:18:31.698335  6710 net.cpp:380] conv4 -> conv4
I0515 19:18:31.729509  6710 net.cpp:122] Setting up conv4
I0515 19:18:31.729559  6710 net.cpp:129] Top shape: 100 384 1 1 (38400)
I0515 19:18:31.729565  6710 net.cpp:137] Memory required for data: 9050000
I0515 19:18:31.729578  6710 layer_factory.hpp:77] Creating layer relu4
I0515 19:18:31.729593  6710 net.cpp:84] Creating Layer relu4
I0515 19:18:31.729599  6710 net.cpp:406] relu4 <- conv4
I0515 19:18:31.729610  6710 net.cpp:367] relu4 -> conv4 (in-place)
I0515 19:18:31.729622  6710 net.cpp:122] Setting up relu4
I0515 19:18:31.729629  6710 net.cpp:129] Top shape: 100 384 1 1 (38400)
I0515 19:18:31.729635  6710 net.cpp:137] Memory required for data: 9203600
I0515 19:18:31.729640  6710 layer_factory.hpp:77] Creating layer fc6
I0515 19:18:31.729691  6710 net.cpp:84] Creating Layer fc6
I0515 19:18:31.729699  6710 net.cpp:406] fc6 <- conv4
I0515 19:18:31.729712  6710 net.cpp:380] fc6 -> fc6
I0515 19:18:31.775349  6710 net.cpp:122] Setting up fc6
I0515 19:18:31.775401  6710 net.cpp:129] Top shape: 100 4096 (409600)
I0515 19:18:31.775408  6710 net.cpp:137] Memory required for data: 10842000
I0515 19:18:31.775429  6710 layer_factory.hpp:77] Creating layer relu6
I0515 19:18:31.775447  6710 net.cpp:84] Creating Layer relu6
I0515 19:18:31.775454  6710 net.cpp:406] relu6 <- fc6
I0515 19:18:31.775466  6710 net.cpp:367] relu6 -> fc6 (in-place)
I0515 19:18:31.775480  6710 net.cpp:122] Setting up relu6
I0515 19:18:31.775498  6710 net.cpp:129] Top shape: 100 4096 (409600)
I0515 19:18:31.775516  6710 net.cpp:137] Memory required for data: 12480400
I0515 19:18:31.775521  6710 layer_factory.hpp:77] Creating layer drop6
I0515 19:18:31.775532  6710 net.cpp:84] Creating Layer drop6
I0515 19:18:31.775537  6710 net.cpp:406] drop6 <- fc6
I0515 19:18:31.775544  6710 net.cpp:367] drop6 -> fc6 (in-place)
I0515 19:18:31.775559  6710 net.cpp:122] Setting up drop6
I0515 19:18:31.775566  6710 net.cpp:129] Top shape: 100 4096 (409600)
I0515 19:18:31.775571  6710 net.cpp:137] Memory required for data: 14118800
I0515 19:18:31.775576  6710 layer_factory.hpp:77] Creating layer fc7
I0515 19:18:31.775594  6710 net.cpp:84] Creating Layer fc7
I0515 19:18:31.775600  6710 net.cpp:406] fc7 <- fc6
I0515 19:18:31.775609  6710 net.cpp:380] fc7 -> fc7
I0515 19:18:32.098189  6710 net.cpp:122] Setting up fc7
I0515 19:18:32.098248  6710 net.cpp:129] Top shape: 100 4096 (409600)
I0515 19:18:32.098255  6710 net.cpp:137] Memory required for data: 15757200
I0515 19:18:32.098270  6710 layer_factory.hpp:77] Creating layer relu7
I0515 19:18:32.098285  6710 net.cpp:84] Creating Layer relu7
I0515 19:18:32.098292  6710 net.cpp:406] relu7 <- fc7
I0515 19:18:32.098306  6710 net.cpp:367] relu7 -> fc7 (in-place)
I0515 19:18:32.098320  6710 net.cpp:122] Setting up relu7
I0515 19:18:32.098327  6710 net.cpp:129] Top shape: 100 4096 (409600)
I0515 19:18:32.098332  6710 net.cpp:137] Memory required for data: 17395600
I0515 19:18:32.098338  6710 layer_factory.hpp:77] Creating layer drop7
I0515 19:18:32.098347  6710 net.cpp:84] Creating Layer drop7
I0515 19:18:32.098353  6710 net.cpp:406] drop7 <- fc7
I0515 19:18:32.098359  6710 net.cpp:367] drop7 -> fc7 (in-place)
I0515 19:18:32.098369  6710 net.cpp:122] Setting up drop7
I0515 19:18:32.098376  6710 net.cpp:129] Top shape: 100 4096 (409600)
I0515 19:18:32.098381  6710 net.cpp:137] Memory required for data: 19034000
I0515 19:18:32.098387  6710 layer_factory.hpp:77] Creating layer fc8
I0515 19:18:32.098399  6710 net.cpp:84] Creating Layer fc8
I0515 19:18:32.098404  6710 net.cpp:406] fc8 <- fc7
I0515 19:18:32.098413  6710 net.cpp:380] fc8 -> fc8
I0515 19:18:32.099138  6710 net.cpp:122] Setting up fc8
I0515 19:18:32.099159  6710 net.cpp:129] Top shape: 100 10 (1000)
I0515 19:18:32.099164  6710 net.cpp:137] Memory required for data: 19038000
I0515 19:18:32.099174  6710 layer_factory.hpp:77] Creating layer loss
I0515 19:18:32.099223  6710 net.cpp:84] Creating Layer loss
I0515 19:18:32.099232  6710 net.cpp:406] loss <- fc8
I0515 19:18:32.099239  6710 net.cpp:406] loss <- label
I0515 19:18:32.099251  6710 net.cpp:380] loss -> loss
I0515 19:18:32.099290  6710 layer_factory.hpp:77] Creating layer loss
…
I0515 19:18:32.110424  6710 net.cpp:294] The NetState phase (1) differed from the phase (0) specified by a rule in layer data
I0515 19:18:32.110723  6710 net.cpp:51] Initializing net from parameters: 
name: "AlexNet"
state {
  phase: TEST
}
layer {
  name: "data"
  type: "Data"
  top: "data"
  top: "label"
  include {
    phase: TEST
  }
  transform_param {
    mirror: false
    crop_size: 32
    mean_file: "../caffe/examples/cifar10/mean.binaryproto"
  }
  data_param {
    source: "../caffe/examples/cifar10/cifar10_test_lmdb"
    batch_size: 100
    backend: LMDB
  }
}
layer {
  name: "conv1"
  type: "Convolution"
  bottom: "data"
  top: "conv1"
  param {
    lr_mult: 1
    decay_mult: 1
  }
  param {
    lr_mult: 2
    decay_mult: 0
  }
  convolution_param {
    num_output: 96
    kernel_size: 11
    stride: 4
    weight_filler {
      type: "gaussian"
      std: 0.01
    }
    bias_filler {
      type: "constant"
      value: 0
    }
  }
}
layer {
  name: "relu1"
  type: "ReLU"
  bottom: "conv1"
  top: "conv1"
}
layer {
  name: "norm1"
  type: "LRN"
  bottom: "conv1"
  top: "norm1"
  lrn_param {
    local_size: 5
    alpha: 0.0001
    beta: 0.75
  }
}
layer {
  name: "pool1"
  type: "Pooling"
  bottom: "norm1"
  top: "pool1"
  pooling_param {
    pool: MAX
    kernel_size: 3
    stride: 2
  }
}
layer {
  name: "conv2"
  type: "Convolution"
  bottom: "pool1"
  top: "conv2"
  param {
    lr_mult: 1
    decay_mult: 1
  }
  param {
    lr_mult: 2
    decay_mult: 0
  }
  convolution_param {
    num_output: 256
    pad: 2
    kernel_size: 5
    group: 2
    weight_filler {
      type: "gaussian"
      std: 0.01
    }
    bias_filler {
      type: "constant"
      value: 0.1
    }
  }
}
layer {
  name: "relu2"
  type: "ReLU"
  bottom: "conv2"
  top: "conv2"
}
layer {
  name: "norm2"
  type: "LRN"
  bottom: "conv2"
  top: "norm2"
  lrn_param {
    local_size: 5
    alpha: 0.0001
    beta: 0.75
  }
}
layer {
  name: "pool2"
  type: "Pooling"
  bottom: "norm2"
  top: "pool2"
  pooling_param {
    pool: MAX
    kernel_size: 3
    stride: 2
  }
}
layer {
  name: "conv3"
  type: "Convolution"
  bottom: "pool2"
  top: "conv3"
  param {
    lr_mult: 1
    decay_mult: 1
  }
  param {
    lr_mult: 2
    decay_mult: 0
  }
  convolution_param {
    num_output: 384
    pad: 1
    kernel_size: 3
    weight_filler {
      type: "gaussian"
      std: 0.01
    }
    bias_filler {
      type: "constant"
      value: 0
    }
  }
}
layer {
  name: "relu3"
  type: "ReLU"
  bottom: "conv3"
  top: "conv3"
}
layer {
  name: "conv4"
  type: "Convolution"
  bottom: "conv3"
  top: "conv4"
  param {
    lr_mult: 1
    decay_mult: 1
  }
  param {
    lr_mult: 2
    decay_mult: 0
  }
  convolution_param {
    num_output: 384
    pad: 1
    kernel_size: 3
    group: 2
    weight_filler {
      type: "gaussian"
      std: 0.01
    }
    bias_filler {
      type: "constant"
      value: 0.1
    }
  }
}
layer {
  name: "relu4"
  type: "ReLU"
  bottom: "conv4"
  top: "conv4"
}
layer {
  name: "fc6"
  type: "InnerProduct"
  bottom: "conv4"
  top: "fc6"
  param {
    lr_mult: 1
    decay_mult: 1
  }
  param {
    lr_mult: 2
    decay_mult: 0
  }
  inner_product_param {
    num_output: 4096
    weight_filler {
      type: "gaussian"
      std: 0.005
    }
    bias_filler {
      type: "constant"
      value: 0.1
    }
  }
}
layer {
  name: "relu6"
  type: "ReLU"
  bottom: "fc6"
  top: "fc6"
}
layer {
  name: "drop6"
  type: "Dropout"
  bottom: "fc6"
  top: "fc6"
  dropout_param {
    dropout_ratio: 0.5
  }
}
layer {
  name: "fc7"
  type: "InnerProduct"
  bottom: "fc6"
  top: "fc7"
  param {
    lr_mult: 1
    decay_mult: 1
  }
  param {
    lr_mult: 2
    decay_mult: 0
  }
  inner_product_param {
    num_output: 4096
    weight_filler {
      type: "gaussian"
      std: 0.005
    }
    bias_filler {
      type: "constant"
      value: 0.1
    }
  }
}
layer {
  name: "relu7"
  type: "ReLU"
  bottom: "fc7"
  top: "fc7"
}
layer {
  name: "drop7"
  type: "Dropout"
  bottom: "fc7"
  top: "fc7"
  dropout_param {
    dropout_ratio: 0.5
  }
}
layer {
  name: "fc8"
  type: "InnerProduct"
  bottom: "fc7"
  top: "fc8"
  param {
    lr_mult: 1
    decay_mult: 1
  }
  param {
    lr_mult: 2
    decay_mult: 0
  }
  inner_product_param {
    num_output: 10
    weight_filler {
      type: "gaussian"
      std: 0.01
    }
    bias_filler {
      type: "constant"
      value: 0
    }
  }
}
layer {
  name: "accuracy"
  type: "Accuracy"
  bottom: "fc8"
  bottom: "label"
  top: "accuracy"
  include {
    phase: TEST
  }
}
layer {
  name: "accuracy_top_5"
  type: "Accuracy"
  bottom: "fc8"
  bottom: "label"
  top: "accuracy_top_5"
  include {
    phase: TEST
  }
  accuracy_param {
    top_k: 5
  }
}
layer {
  name: "loss"
  type: "SoftmaxWithLoss"
  bottom: "fc8"
  bottom: "label"
  top: "loss"
}
I0515 19:18:32.110918  6710 layer_factory.hpp:77] Creating layer data
I0515 19:18:32.111100  6710 db_lmdb.cpp:35] Opened lmdb ../caffe/examples/cifar10/cifar10_test_lmdb
I0515 19:18:32.111147  6710 net.cpp:84] Creating Layer data
I0515 19:18:32.111158  6710 net.cpp:380] data -> data
I0515 19:18:32.111176  6710 net.cpp:380] data -> label
I0515 19:18:32.111189  6710 data_transformer.cpp:25] Loading mean file from: ../caffe/examples/cifar10/mean.binaryproto
I0515 19:18:32.111266  6710 data_layer.cpp:45] output data size: 100,3,32,32
I0515 19:18:32.111349  6710 net.cpp:122] Setting up data
I0515 19:18:32.111363  6710 net.cpp:129] Top shape: 100 3 32 32 (307200)
I0515 19:18:32.111371  6710 net.cpp:129] Top shape: 100 (100)
I0515 19:18:32.111376  6710 net.cpp:137] Memory required for data: 1229200
I0515 19:18:32.111382  6710 layer_factory.hpp:77] Creating layer label_data_1_split
I0515 19:18:32.111392  6710 net.cpp:84] Creating Layer label_data_1_split
I0515 19:18:32.111397  6710 net.cpp:406] label_data_1_split <- label
I0515 19:18:32.111407  6710 net.cpp:380] label_data_1_split -> label_data_1_split_0
I0515 19:18:32.111418  6710 net.cpp:380] label_data_1_split -> label_data_1_split_1
I0515 19:18:32.111426  6710 net.cpp:380] label_data_1_split -> label_data_1_split_2
I0515 19:18:32.111438  6710 net.cpp:122] Setting up label_data_1_split
I0515 19:18:32.111445  6710 net.cpp:129] Top shape: 100 (100)
I0515 19:18:32.111451  6710 net.cpp:129] Top shape: 100 (100)
I0515 19:18:32.111457  6710 net.cpp:129] Top shape: 100 (100)
I0515 19:18:32.111462  6710 net.cpp:137] Memory required for data: 1230400
I0515 19:18:32.111467  6710 layer_factory.hpp:77] Creating layer conv1
I0515 19:18:32.111482  6710 net.cpp:84] Creating Layer conv1
I0515 19:18:32.111488  6710 net.cpp:406] conv1 <- data
I0515 19:18:32.111497  6710 net.cpp:380] conv1 -> conv1
I0515 19:18:32.112136  6710 net.cpp:122] Setting up conv1
I0515 19:18:32.112150  6710 net.cpp:129] Top shape: 100 96 6 6 (345600)
I0515 19:18:32.112155  6710 net.cpp:137] Memory required for data: 2612800
I0515 19:18:32.112170  6710 layer_factory.hpp:77] Creating layer relu1
I0515 19:18:32.112179  6710 net.cpp:84] Creating Layer relu1
I0515 19:18:32.112185  6710 net.cpp:406] relu1 <- conv1
I0515 19:18:32.112193  6710 net.cpp:367] relu1 -> conv1 (in-place)
I0515 19:18:32.112202  6710 net.cpp:122] Setting up relu1
I0515 19:18:32.112210  6710 net.cpp:129] Top shape: 100 96 6 6 (345600)
I0515 19:18:32.112215  6710 net.cpp:137] Memory required for data: 3995200
I0515 19:18:32.112220  6710 layer_factory.hpp:77] Creating layer norm1
I0515 19:18:32.112229  6710 net.cpp:84] Creating Layer norm1
I0515 19:18:32.112270  6710 net.cpp:406] norm1 <- conv1
I0515 19:18:32.112282  6710 net.cpp:380] norm1 -> norm1
I0515 19:18:32.112294  6710 net.cpp:122] Setting up norm1
I0515 19:18:32.112303  6710 net.cpp:129] Top shape: 100 96 6 6 (345600)
I0515 19:18:32.112308  6710 net.cpp:137] Memory required for data: 5377600
I0515 19:18:32.112313  6710 layer_factory.hpp:77] Creating layer pool1
I0515 19:18:32.112320  6710 net.cpp:84] Creating Layer pool1
I0515 19:18:32.112325  6710 net.cpp:406] pool1 <- norm1
I0515 19:18:32.112335  6710 net.cpp:380] pool1 -> pool1
I0515 19:18:32.112347  6710 net.cpp:122] Setting up pool1
I0515 19:18:32.112354  6710 net.cpp:129] Top shape: 100 96 3 3 (86400)
I0515 19:18:32.112360  6710 net.cpp:137] Memory required for data: 5723200
I0515 19:18:32.112365  6710 layer_factory.hpp:77] Creating layer conv2
I0515 19:18:32.112375  6710 net.cpp:84] Creating Layer conv2
I0515 19:18:32.112380  6710 net.cpp:406] conv2 <- pool1
I0515 19:18:32.112390  6710 net.cpp:380] conv2 -> conv2
I0515 19:18:32.122637  6710 net.cpp:122] Setting up conv2
I0515 19:18:32.122676  6710 net.cpp:129] Top shape: 100 256 3 3 (230400)
I0515 19:18:32.122684  6710 net.cpp:137] Memory required for data: 6644800
I0515 19:18:32.122702  6710 layer_factory.hpp:77] Creating layer relu2
I0515 19:18:32.122714  6710 net.cpp:84] Creating Layer relu2
I0515 19:18:32.122721  6710 net.cpp:406] relu2 <- conv2
I0515 19:18:32.122730  6710 net.cpp:367] relu2 -> conv2 (in-place)
I0515 19:18:32.122750  6710 net.cpp:122] Setting up relu2
I0515 19:18:32.122757  6710 net.cpp:129] Top shape: 100 256 3 3 (230400)
I0515 19:18:32.122762  6710 net.cpp:137] Memory required for data: 7566400
I0515 19:18:32.122767  6710 layer_factory.hpp:77] Creating layer norm2
I0515 19:18:32.122788  6710 net.cpp:84] Creating Layer norm2
I0515 19:18:32.122795  6710 net.cpp:406] norm2 <- conv2
I0515 19:18:32.122803  6710 net.cpp:380] norm2 -> norm2
I0515 19:18:32.122814  6710 net.cpp:122] Setting up norm2
I0515 19:18:32.122822  6710 net.cpp:129] Top shape: 100 256 3 3 (230400)
I0515 19:18:32.122828  6710 net.cpp:137] Memory required for data: 8488000
I0515 19:18:32.122833  6710 layer_factory.hpp:77] Creating layer pool2
I0515 19:18:32.122841  6710 net.cpp:84] Creating Layer pool2
I0515 19:18:32.122846  6710 net.cpp:406] pool2 <- norm2
I0515 19:18:32.122853  6710 net.cpp:380] pool2 -> pool2
I0515 19:18:32.122864  6710 net.cpp:122] Setting up pool2
I0515 19:18:32.122871  6710 net.cpp:129] Top shape: 100 256 1 1 (25600)
I0515 19:18:32.122876  6710 net.cpp:137] Memory required for data: 8590400
I0515 19:18:32.122880  6710 layer_factory.hpp:77] Creating layer conv3
I0515 19:18:32.122895  6710 net.cpp:84] Creating Layer conv3
I0515 19:18:32.122900  6710 net.cpp:406] conv3 <- pool2
I0515 19:18:32.122910  6710 net.cpp:380] conv3 -> conv3
I0515 19:18:32.149945  6710 net.cpp:122] Setting up conv3
I0515 19:18:32.149994  6710 net.cpp:129] Top shape: 100 384 1 1 (38400)
I0515 19:18:32.150001  6710 net.cpp:137] Memory required for data: 8744000
I0515 19:18:32.150020  6710 layer_factory.hpp:77] Creating layer relu3
I0515 19:18:32.150037  6710 net.cpp:84] Creating Layer relu3
I0515 19:18:32.150043  6710 net.cpp:406] relu3 <- conv3
I0515 19:18:32.150054  6710 net.cpp:367] relu3 -> conv3 (in-place)
I0515 19:18:32.150066  6710 net.cpp:122] Setting up relu3
I0515 19:18:32.150074  6710 net.cpp:129] Top shape: 100 384 1 1 (38400)
I0515 19:18:32.150079  6710 net.cpp:137] Memory required for data: 8897600
I0515 19:18:32.150084  6710 layer_factory.hpp:77] Creating layer conv4
I0515 19:18:32.150099  6710 net.cpp:84] Creating Layer conv4
I0515 19:18:32.150104  6710 net.cpp:406] conv4 <- conv3
I0515 19:18:32.150115  6710 net.cpp:380] conv4 -> conv4
I0515 19:18:32.169713  6710 net.cpp:122] Setting up conv4
I0515 19:18:32.169764  6710 net.cpp:129] Top shape: 100 384 1 1 (38400)
I0515 19:18:32.169770  6710 net.cpp:137] Memory required for data: 9051200
I0515 19:18:32.169790  6710 layer_factory.hpp:77] Creating layer relu4
I0515 19:18:32.169801  6710 net.cpp:84] Creating Layer relu4
I0515 19:18:32.169819  6710 net.cpp:406] relu4 <- conv4
I0515 19:18:32.169841  6710 net.cpp:367] relu4 -> conv4 (in-place)
I0515 19:18:32.169852  6710 net.cpp:122] Setting up relu4
I0515 19:18:32.169859  6710 net.cpp:129] Top shape: 100 384 1 1 (38400)
I0515 19:18:32.169864  6710 net.cpp:137] Memory required for data: 9204800
I0515 19:18:32.169869  6710 layer_factory.hpp:77] Creating layer fc6
I0515 19:18:32.169880  6710 net.cpp:84] Creating Layer fc6
I0515 19:18:32.169885  6710 net.cpp:406] fc6 <- conv4
I0515 19:18:32.169896  6710 net.cpp:380] fc6 -> fc6
I0515 19:18:32.215270  6710 net.cpp:122] Setting up fc6
I0515 19:18:32.215320  6710 net.cpp:129] Top shape: 100 4096 (409600)
I0515 19:18:32.215327  6710 net.cpp:137] Memory required for data: 10843200
I0515 19:18:32.215346  6710 layer_factory.hpp:77] Creating layer relu6
I0515 19:18:32.215361  6710 net.cpp:84] Creating Layer relu6
I0515 19:18:32.215368  6710 net.cpp:406] relu6 <- fc6
I0515 19:18:32.215380  6710 net.cpp:367] relu6 -> fc6 (in-place)
I0515 19:18:32.215391  6710 net.cpp:122] Setting up relu6
I0515 19:18:32.215399  6710 net.cpp:129] Top shape: 100 4096 (409600)
I0515 19:18:32.215404  6710 net.cpp:137] Memory required for data: 12481600
I0515 19:18:32.215409  6710 layer_factory.hpp:77] Creating layer drop6
I0515 19:18:32.215426  6710 net.cpp:84] Creating Layer drop6
I0515 19:18:32.215432  6710 net.cpp:406] drop6 <- fc6
I0515 19:18:32.215440  6710 net.cpp:367] drop6 -> fc6 (in-place)
I0515 19:18:32.215450  6710 net.cpp:122] Setting up drop6
I0515 19:18:32.215456  6710 net.cpp:129] Top shape: 100 4096 (409600)
I0515 19:18:32.215462  6710 net.cpp:137] Memory required for data: 14120000
I0515 19:18:32.215467  6710 layer_factory.hpp:77] Creating layer fc7
I0515 19:18:32.215478  6710 net.cpp:84] Creating Layer fc7
I0515 19:18:32.215483  6710 net.cpp:406] fc7 <- fc6
I0515 19:18:32.215495  6710 net.cpp:380] fc7 -> fc7
I0515 19:18:32.477957  6710 net.cpp:122] Setting up fc7
I0515 19:18:32.478018  6710 net.cpp:129] Top shape: 100 4096 (409600)
I0515 19:18:32.478024  6710 net.cpp:137] Memory required for data: 15758400
I0515 19:18:32.478040  6710 layer_factory.hpp:77] Creating layer relu7
I0515 19:18:32.478055  6710 net.cpp:84] Creating Layer relu7
I0515 19:18:32.478061  6710 net.cpp:406] relu7 <- fc7
I0515 19:18:32.478072  6710 net.cpp:367] relu7 -> fc7 (in-place)
I0515 19:18:32.478085  6710 net.cpp:122] Setting up relu7
I0515 19:18:32.478093  6710 net.cpp:129] Top shape: 100 4096 (409600)
I0515 19:18:32.478098  6710 net.cpp:137] Memory required for data: 17396800
I0515 19:18:32.478103  6710 layer_factory.hpp:77] Creating layer drop7
I0515 19:18:32.478113  6710 net.cpp:84] Creating Layer drop7
I0515 19:18:32.478118  6710 net.cpp:406] drop7 <- fc7
I0515 19:18:32.478127  6710 net.cpp:367] drop7 -> fc7 (in-place)
I0515 19:18:32.478137  6710 net.cpp:122] Setting up drop7
I0515 19:18:32.478144  6710 net.cpp:129] Top shape: 100 4096 (409600)
I0515 19:18:32.478149  6710 net.cpp:137] Memory required for data: 19035200
I0515 19:18:32.478154  6710 layer_factory.hpp:77] Creating layer fc8
I0515 19:18:32.478164  6710 net.cpp:84] Creating Layer fc8
I0515 19:18:32.478170  6710 net.cpp:406] fc8 <- fc7
I0515 19:18:32.478178  6710 net.cpp:380] fc8 -> fc8
I0515 19:18:32.478899  6710 net.cpp:122] Setting up fc8
I0515 19:18:32.478910  6710 net.cpp:129] Top shape: 100 10 (1000)
I0515 19:18:32.478915  6710 net.cpp:137] Memory required for data: 19039200
I0515 19:18:32.478924  6710 layer_factory.hpp:77] Creating layer fc8_fc8_0_split
I0515 19:18:32.478935  6710 net.cpp:84] Creating Layer fc8_fc8_0_split
I0515 19:18:32.478940  6710 net.cpp:406] fc8_fc8_0_split <- fc8
I0515 19:18:32.478948  6710 net.cpp:380] fc8_fc8_0_split -> fc8_fc8_0_split_0
I0515 19:18:32.478965  6710 net.cpp:380] fc8_fc8_0_split -> fc8_fc8_0_split_1
I0515 19:18:32.478976  6710 net.cpp:380] fc8_fc8_0_split -> fc8_fc8_0_split_2
I0515 19:18:32.478986  6710 net.cpp:122] Setting up fc8_fc8_0_split
I0515 19:18:32.478993  6710 net.cpp:129] Top shape: 100 10 (1000)
I0515 19:18:32.479001  6710 net.cpp:129] Top shape: 100 10 (1000)
I0515 19:18:32.479019  6710 net.cpp:129] Top shape: 100 10 (1000)
I0515 19:18:32.479035  6710 net.cpp:137] Memory required for data: 19051200
I0515 19:18:32.479041  6710 layer_factory.hpp:77] Creating layer accuracy
I0515 19:18:32.479084  6710 net.cpp:84] Creating Layer accuracy
I0515 19:18:32.479094  6710 net.cpp:406] accuracy <- fc8_fc8_0_split_0
I0515 19:18:32.479100  6710 net.cpp:406] accuracy <- label_data_1_split_0
I0515 19:18:32.479110  6710 net.cpp:380] accuracy -> accuracy
…
