…
I0513 09:45:53.565104  3942 net.cpp:294] The NetState phase (0) differed from the phase (1) specified by a rule in layer cifar
I0513 09:45:53.565246  3942 net.cpp:51] Initializing net from parameters: 
name: "CIFAR10_mlp"
state {
  phase: TRAIN
  level: 0
  stage: ""
}
layer {
  name: "cifar"
  type: "Data"
  top: "data"
  top: "label"
  include {
    phase: TRAIN
  }
  transform_param {
    mean_file: "../caffe/examples/cifar10/mean.binaryproto"
  }
  data_param {
    source: "../caffe/examples/cifar10/cifar10_train_lmdb"
    batch_size: 100
    backend: LMDB
  }
}
layer {
  name: "drop1"
  type: "Dropout"
  bottom: "data"
  top: "data"
  dropout_param {
    dropout_ratio: 0.2
  }
}
layer {
  name: "conv1"
  type: "Convolution"
  bottom: "data"
  top: "conv1"
  param {
    lr_mult: 1
  }
  param {
    lr_mult: 1
  }
  convolution_param {
    num_output: 96
    pad: 1
    kernel_size: 3
    stride: 1
    weight_filler {
      type: "xavier"
    }
    bias_filler {
      type: "constant"
      value: 0
    }
  }
}
layer {
  name: "relu1"
  type: "ReLU"
  bottom: "conv1"
  top: "conv1"
}
layer {
  name: "conv2"
  type: "Convolution"
  bottom: "conv1"
  top: "conv2"
  param {
    lr_mult: 1
  }
  param {
    lr_mult: 1
  }
  convolution_param {
    num_output: 96
    pad: 1
    kernel_size: 3
    stride: 1
    weight_filler {
      type: "xavier"
    }
    bias_filler {
      type: "constant"
      value: 0
    }
  }
}
layer {
  name: "relu2"
  type: "ReLU"
  bottom: "conv2"
  top: "conv2"
}
layer {
  name: "conv3"
  type: "Convolution"
  bottom: "conv2"
  top: "conv3"
  param {
    lr_mult: 1
  }
  param {
    lr_mult: 1
  }
  convolution_param {
    num_output: 96
    pad: 1
    kernel_size: 3
    stride: 2
    weight_filler {
      type: "xavier"
    }
    bias_filler {
      type: "constant"
      value: 0
    }
  }
}
layer {
  name: "relu3"
  type: "ReLU"
  bottom: "conv3"
  top: "conv3"
}
layer {
  name: "drop2"
  type: "Dropout"
  bottom: "conv3"
  top: "conv3"
  dropout_param {
    dropout_ratio: 0.5
  }
}
layer {
  name: "conv4"
  type: "Convolution"
  bottom: "conv3"
  top: "conv4"
  param {
    lr_mult: 1
  }
  param {
    lr_mult: 1
  }
  convolution_param {
    num_output: 192
    pad: 1
    kernel_size: 3
    stride: 1
    weight_filler {
      type: "xavier"
    }
    bias_filler {
      type: "constant"
      value: 0
    }
  }
}
layer {
  name: "relu4"
  type: "ReLU"
  bottom: "conv4"
  top: "conv4"
}
layer {
  name: "conv5"
  type: "Convolution"
  bottom: "conv4"
  top: "conv5"
  param {
    lr_mult: 1
  }
  param {
    lr_mult: 1
  }
  convolution_param {
    num_output: 192
    pad: 1
    kernel_size: 3
    stride: 1
    weight_filler {
      type: "xavier"
    }
    bias_filler {
      type: "constant"
      value: 0
    }
  }
}
layer {
  name: "relu5"
  type: "ReLU"
  bottom: "conv5"
  top: "conv5"
}
layer {
  name: "conv6"
  type: "Convolution"
  bottom: "conv5"
  top: "conv6"
  param {
    lr_mult: 1
  }
  param {
    lr_mult: 1
  }
  convolution_param {
    num_output: 192
    pad: 1
    kernel_size: 3
    stride: 2
    weight_filler {
      type: "xavier"
    }
    bias_filler {
      type: "constant"
      value: 0
    }
  }
}
layer {
  name: "relu6"
  type: "ReLU"
  bottom: "conv6"
  top: "conv6"
}
layer {
  name: "drop3"
  type: "Dropout"
  bottom: "conv6"
  top: "conv6"
  dropout_param {
    dropout_ratio: 0.5
  }
}
layer {
  name: "conv7"
  type: "Convolution"
  bottom: "conv6"
  top: "conv7"
  param {
    lr_mult: 1
  }
  param {
    lr_mult: 1
  }
  convolution_param {
    num_output: 192
    kernel_size: 3
    stride: 1
    weight_filler {
      type: "xavier"
    }
    bias_filler {
      type: "constant"
      value: 0
    }
  }
}
layer {
  name: "relu7"
  type: "ReLU"
  bottom: "conv7"
  top: "conv7"
}
layer {
  name: "conv8"
  type: "Convolution"
  bottom: "conv7"
  top: "conv8"
  param {
    lr_mult: 1
  }
  param {
    lr_mult: 1
  }
  convolution_param {
    num_output: 192
    kernel_size: 1
    stride: 1
    weight_filler {
      type: "xavier"
    }
    bias_filler {
      type: "constant"
      value: 0
    }
  }
}
layer {
  name: "relu8"
  type: "ReLU"
  bottom: "conv8"
  top: "conv8"
}
layer {
  name: "conv9"
  type: "Convolution"
  bottom: "conv8"
  top: "conv9"
  param {
    lr_mult: 1
  }
  param {
    lr_mult: 1
  }
  convolution_param {
    num_output: 10
    kernel_size: 1
    stride: 1
    weight_filler {
      type: "xavier"
    }
    bias_filler {
      type: "constant"
      value: 0
    }
  }
}
layer {
  name: "relu9"
  type: "ReLU"
  bottom: "conv9"
  top: "conv9"
}
layer {
  name: "pool"
  type: "Pooling"
  bottom: "conv9"
  top: "pool"
  pooling_param {
    pool: AVE
    global_pooling: true
  }
}
layer {
  name: "accuracy"
  type: "Accuracy"
  bottom: "pool"
  bottom: "label"
  top: "accuracy"
}
layer {
  name: "loss"
  type: "SoftmaxWithLoss"
  bottom: "pool"
  bottom: "label"
  top: "loss"
}
I0513 09:45:53.565369  3942 layer_factory.hpp:77] Creating layer cifar
I0513 09:45:53.565469  3942 db_lmdb.cpp:35] Opened lmdb ../caffe/examples/cifar10/cifar10_train_lmdb
I0513 09:45:53.565506  3942 net.cpp:84] Creating Layer cifar
I0513 09:45:53.565515  3942 net.cpp:380] cifar -> data
I0513 09:45:53.565538  3942 net.cpp:380] cifar -> label
I0513 09:45:53.565551  3942 data_transformer.cpp:25] Loading mean file from: ../caffe/examples/cifar10/mean.binaryproto
I0513 09:45:53.565635  3942 data_layer.cpp:45] output data size: 100,3,32,32
I0513 09:45:53.565744  3942 net.cpp:122] Setting up cifar
I0513 09:45:53.565753  3942 net.cpp:129] Top shape: 100 3 32 32 (307200)
I0513 09:45:53.565757  3942 net.cpp:129] Top shape: 100 (100)
I0513 09:45:53.565760  3942 net.cpp:137] Memory required for data: 1229200
I0513 09:45:53.565767  3942 layer_factory.hpp:77] Creating layer label_cifar_1_split
I0513 09:45:53.565773  3942 net.cpp:84] Creating Layer label_cifar_1_split
I0513 09:45:53.565778  3942 net.cpp:406] label_cifar_1_split <- label
I0513 09:45:53.565786  3942 net.cpp:380] label_cifar_1_split -> label_cifar_1_split_0
I0513 09:45:53.565793  3942 net.cpp:380] label_cifar_1_split -> label_cifar_1_split_1
I0513 09:45:53.565805  3942 net.cpp:122] Setting up label_cifar_1_split
I0513 09:45:53.565809  3942 net.cpp:129] Top shape: 100 (100)
I0513 09:45:53.565814  3942 net.cpp:129] Top shape: 100 (100)
I0513 09:45:53.565816  3942 net.cpp:137] Memory required for data: 1230000
I0513 09:45:53.565959  3942 layer_factory.hpp:77] Creating layer drop1
I0513 09:45:53.565973  3942 net.cpp:84] Creating Layer drop1
I0513 09:45:53.565978  3942 net.cpp:406] drop1 <- data
I0513 09:45:53.565984  3942 net.cpp:367] drop1 -> data (in-place)
I0513 09:45:53.565997  3942 net.cpp:122] Setting up drop1
I0513 09:45:53.566004  3942 net.cpp:129] Top shape: 100 3 32 32 (307200)
I0513 09:45:53.566007  3942 net.cpp:137] Memory required for data: 2458800
I0513 09:45:53.566010  3942 layer_factory.hpp:77] Creating layer conv1
I0513 09:45:53.566027  3942 net.cpp:84] Creating Layer conv1
I0513 09:45:53.566030  3942 net.cpp:406] conv1 <- data
I0513 09:45:53.566035  3942 net.cpp:380] conv1 -> conv1
I0513 09:45:53.566105  3942 net.cpp:122] Setting up conv1
I0513 09:45:53.566112  3942 net.cpp:129] Top shape: 100 96 32 32 (9830400)
I0513 09:45:53.566114  3942 net.cpp:137] Memory required for data: 41780400
I0513 09:45:53.566130  3942 layer_factory.hpp:77] Creating layer relu1
I0513 09:45:53.566140  3942 net.cpp:84] Creating Layer relu1
I0513 09:45:53.566144  3942 net.cpp:406] relu1 <- conv1
I0513 09:45:53.566148  3942 net.cpp:367] relu1 -> conv1 (in-place)
I0513 09:45:53.566154  3942 net.cpp:122] Setting up relu1
I0513 09:45:53.566157  3942 net.cpp:129] Top shape: 100 96 32 32 (9830400)
I0513 09:45:53.566176  3942 net.cpp:137] Memory required for data: 81102000
I0513 09:45:53.566179  3942 layer_factory.hpp:77] Creating layer conv2
I0513 09:45:53.566186  3942 net.cpp:84] Creating Layer conv2
I0513 09:45:53.566190  3942 net.cpp:406] conv2 <- conv1
I0513 09:45:53.566197  3942 net.cpp:380] conv2 -> conv2
I0513 09:45:53.567021  3942 net.cpp:122] Setting up conv2
I0513 09:45:53.567028  3942 net.cpp:129] Top shape: 100 96 32 32 (9830400)
I0513 09:45:53.567031  3942 net.cpp:137] Memory required for data: 120423600
I0513 09:45:53.567039  3942 layer_factory.hpp:77] Creating layer relu2
I0513 09:45:53.567044  3942 net.cpp:84] Creating Layer relu2
I0513 09:45:53.567049  3942 net.cpp:406] relu2 <- conv2
I0513 09:45:53.567052  3942 net.cpp:367] relu2 -> conv2 (in-place)
I0513 09:45:53.567057  3942 net.cpp:122] Setting up relu2
I0513 09:45:53.567061  3942 net.cpp:129] Top shape: 100 96 32 32 (9830400)
I0513 09:45:53.567065  3942 net.cpp:137] Memory required for data: 159745200
I0513 09:45:53.567067  3942 layer_factory.hpp:77] Creating layer conv3
I0513 09:45:53.567075  3942 net.cpp:84] Creating Layer conv3
I0513 09:45:53.567080  3942 net.cpp:406] conv3 <- conv2
I0513 09:45:53.567083  3942 net.cpp:380] conv3 -> conv3
I0513 09:45:53.567909  3942 net.cpp:122] Setting up conv3
I0513 09:45:53.567914  3942 net.cpp:129] Top shape: 100 96 16 16 (2457600)
I0513 09:45:53.567917  3942 net.cpp:137] Memory required for data: 169575600
I0513 09:45:53.567924  3942 layer_factory.hpp:77] Creating layer relu3
I0513 09:45:53.567931  3942 net.cpp:84] Creating Layer relu3
I0513 09:45:53.567934  3942 net.cpp:406] relu3 <- conv3
I0513 09:45:53.567939  3942 net.cpp:367] relu3 -> conv3 (in-place)
I0513 09:45:53.567944  3942 net.cpp:122] Setting up relu3
I0513 09:45:53.567950  3942 net.cpp:129] Top shape: 100 96 16 16 (2457600)
I0513 09:45:53.567953  3942 net.cpp:137] Memory required for data: 179406000
I0513 09:45:53.567958  3942 layer_factory.hpp:77] Creating layer drop2
I0513 09:45:53.567962  3942 net.cpp:84] Creating Layer drop2
I0513 09:45:53.567965  3942 net.cpp:406] drop2 <- conv3
I0513 09:45:53.567970  3942 net.cpp:367] drop2 -> conv3 (in-place)
I0513 09:45:53.567975  3942 net.cpp:122] Setting up drop2
I0513 09:45:53.567978  3942 net.cpp:129] Top shape: 100 96 16 16 (2457600)
I0513 09:45:53.567981  3942 net.cpp:137] Memory required for data: 189236400
I0513 09:45:53.567984  3942 layer_factory.hpp:77] Creating layer conv4
I0513 09:45:53.567992  3942 net.cpp:84] Creating Layer conv4
I0513 09:45:53.567996  3942 net.cpp:406] conv4 <- conv3
I0513 09:45:53.568001  3942 net.cpp:380] conv4 -> conv4
I0513 09:45:53.569612  3942 net.cpp:122] Setting up conv4
I0513 09:45:53.569622  3942 net.cpp:129] Top shape: 100 192 16 16 (4915200)
I0513 09:45:53.569624  3942 net.cpp:137] Memory required for data: 208897200
I0513 09:45:53.569628  3942 layer_factory.hpp:77] Creating layer relu4
I0513 09:45:53.569636  3942 net.cpp:84] Creating Layer relu4
I0513 09:45:53.569639  3942 net.cpp:406] relu4 <- conv4
I0513 09:45:53.569643  3942 net.cpp:367] relu4 -> conv4 (in-place)
I0513 09:45:53.569648  3942 net.cpp:122] Setting up relu4
I0513 09:45:53.569653  3942 net.cpp:129] Top shape: 100 192 16 16 (4915200)
I0513 09:45:53.569655  3942 net.cpp:137] Memory required for data: 228558000
I0513 09:45:53.569658  3942 layer_factory.hpp:77] Creating layer conv5
I0513 09:45:53.569664  3942 net.cpp:84] Creating Layer conv5
I0513 09:45:53.569667  3942 net.cpp:406] conv5 <- conv4
I0513 09:45:53.569674  3942 net.cpp:380] conv5 -> conv5
I0513 09:45:53.578765  3942 net.cpp:122] Setting up conv5
I0513 09:45:53.578802  3942 net.cpp:129] Top shape: 100 192 16 16 (4915200)
I0513 09:45:53.578806  3942 net.cpp:137] Memory required for data: 248218800
I0513 09:45:53.578819  3942 layer_factory.hpp:77] Creating layer relu5
I0513 09:45:53.578829  3942 net.cpp:84] Creating Layer relu5
I0513 09:45:53.578832  3942 net.cpp:406] relu5 <- conv5
I0513 09:45:53.578840  3942 net.cpp:367] relu5 -> conv5 (in-place)
I0513 09:45:53.578850  3942 net.cpp:122] Setting up relu5
I0513 09:45:53.578860  3942 net.cpp:129] Top shape: 100 192 16 16 (4915200)
I0513 09:45:53.578872  3942 net.cpp:137] Memory required for data: 267879600
I0513 09:45:53.578876  3942 layer_factory.hpp:77] Creating layer conv6
I0513 09:45:53.578886  3942 net.cpp:84] Creating Layer conv6
I0513 09:45:53.578889  3942 net.cpp:406] conv6 <- conv5
I0513 09:45:53.578896  3942 net.cpp:380] conv6 -> conv6
I0513 09:45:53.581822  3942 net.cpp:122] Setting up conv6
I0513 09:45:53.581837  3942 net.cpp:129] Top shape: 100 192 8 8 (1228800)
I0513 09:45:53.581840  3942 net.cpp:137] Memory required for data: 272794800
I0513 09:45:53.581845  3942 layer_factory.hpp:77] Creating layer relu6
I0513 09:45:53.581851  3942 net.cpp:84] Creating Layer relu6
I0513 09:45:53.581853  3942 net.cpp:406] relu6 <- conv6
I0513 09:45:53.581857  3942 net.cpp:367] relu6 -> conv6 (in-place)
I0513 09:45:53.581862  3942 net.cpp:122] Setting up relu6
I0513 09:45:53.581866  3942 net.cpp:129] Top shape: 100 192 8 8 (1228800)
I0513 09:45:53.581869  3942 net.cpp:137] Memory required for data: 277710000
I0513 09:45:53.581872  3942 layer_factory.hpp:77] Creating layer drop3
I0513 09:45:53.581882  3942 net.cpp:84] Creating Layer drop3
I0513 09:45:53.581885  3942 net.cpp:406] drop3 <- conv6
I0513 09:45:53.581890  3942 net.cpp:367] drop3 -> conv6 (in-place)
I0513 09:45:53.581907  3942 net.cpp:122] Setting up drop3
I0513 09:45:53.581912  3942 net.cpp:129] Top shape: 100 192 8 8 (1228800)
I0513 09:45:53.581915  3942 net.cpp:137] Memory required for data: 282625200
I0513 09:45:53.581918  3942 layer_factory.hpp:77] Creating layer conv7
I0513 09:45:53.581924  3942 net.cpp:84] Creating Layer conv7
I0513 09:45:53.581928  3942 net.cpp:406] conv7 <- conv6
I0513 09:45:53.581934  3942 net.cpp:380] conv7 -> conv7
I0513 09:45:53.584867  3942 net.cpp:122] Setting up conv7
I0513 09:45:53.584877  3942 net.cpp:129] Top shape: 100 192 6 6 (691200)
I0513 09:45:53.584880  3942 net.cpp:137] Memory required for data: 285390000
I0513 09:45:53.584887  3942 layer_factory.hpp:77] Creating layer relu7
I0513 09:45:53.584890  3942 net.cpp:84] Creating Layer relu7
I0513 09:45:53.584894  3942 net.cpp:406] relu7 <- conv7
I0513 09:45:53.584899  3942 net.cpp:367] relu7 -> conv7 (in-place)
I0513 09:45:53.584904  3942 net.cpp:122] Setting up relu7
I0513 09:45:53.584908  3942 net.cpp:129] Top shape: 100 192 6 6 (691200)
I0513 09:45:53.584911  3942 net.cpp:137] Memory required for data: 288154800
I0513 09:45:53.584914  3942 layer_factory.hpp:77] Creating layer conv8
I0513 09:45:53.584921  3942 net.cpp:84] Creating Layer conv8
I0513 09:45:53.584924  3942 net.cpp:406] conv8 <- conv7
I0513 09:45:53.584929  3942 net.cpp:380] conv8 -> conv8
I0513 09:45:53.585269  3942 net.cpp:122] Setting up conv8
I0513 09:45:53.585275  3942 net.cpp:129] Top shape: 100 192 6 6 (691200)
I0513 09:45:53.585278  3942 net.cpp:137] Memory required for data: 290919600
I0513 09:45:53.585283  3942 layer_factory.hpp:77] Creating layer relu8
I0513 09:45:53.585288  3942 net.cpp:84] Creating Layer relu8
I0513 09:45:53.585290  3942 net.cpp:406] relu8 <- conv8
I0513 09:45:53.585294  3942 net.cpp:367] relu8 -> conv8 (in-place)
I0513 09:45:53.585299  3942 net.cpp:122] Setting up relu8
I0513 09:45:53.585304  3942 net.cpp:129] Top shape: 100 192 6 6 (691200)
I0513 09:45:53.585306  3942 net.cpp:137] Memory required for data: 293684400
I0513 09:45:53.585309  3942 layer_factory.hpp:77] Creating layer conv9
I0513 09:45:53.585316  3942 net.cpp:84] Creating Layer conv9
I0513 09:45:53.585319  3942 net.cpp:406] conv9 <- conv8
I0513 09:45:53.585325  3942 net.cpp:380] conv9 -> conv9
I0513 09:45:53.585360  3942 net.cpp:122] Setting up conv9
I0513 09:45:53.585364  3942 net.cpp:129] Top shape: 100 10 6 6 (36000)
I0513 09:45:53.585367  3942 net.cpp:137] Memory required for data: 293828400
I0513 09:45:53.585376  3942 layer_factory.hpp:77] Creating layer relu9
I0513 09:45:53.585379  3942 net.cpp:84] Creating Layer relu9
I0513 09:45:53.585382  3942 net.cpp:406] relu9 <- conv9
I0513 09:45:53.585386  3942 net.cpp:367] relu9 -> conv9 (in-place)
I0513 09:45:53.585397  3942 net.cpp:122] Setting up relu9
I0513 09:45:53.585407  3942 net.cpp:129] Top shape: 100 10 6 6 (36000)
I0513 09:45:53.585409  3942 net.cpp:137] Memory required for data: 293972400
I0513 09:45:53.585412  3942 layer_factory.hpp:77] Creating layer pool
I0513 09:45:53.585417  3942 net.cpp:84] Creating Layer pool
I0513 09:45:53.585420  3942 net.cpp:406] pool <- conv9
I0513 09:45:53.585427  3942 net.cpp:380] pool -> pool
I0513 09:45:53.585443  3942 net.cpp:122] Setting up pool
I0513 09:45:53.585453  3942 net.cpp:129] Top shape: 100 10 1 1 (1000)
I0513 09:45:53.585455  3942 net.cpp:137] Memory required for data: 293976400
I0513 09:45:53.585458  3942 layer_factory.hpp:77] Creating layer pool_pool_0_split
I0513 09:45:53.585464  3942 net.cpp:84] Creating Layer pool_pool_0_split
I0513 09:45:53.585466  3942 net.cpp:406] pool_pool_0_split <- pool
I0513 09:45:53.585471  3942 net.cpp:380] pool_pool_0_split -> pool_pool_0_split_0
I0513 09:45:53.585477  3942 net.cpp:380] pool_pool_0_split -> pool_pool_0_split_1
I0513 09:45:53.585484  3942 net.cpp:122] Setting up pool_pool_0_split
I0513 09:45:53.585489  3942 net.cpp:129] Top shape: 100 10 1 1 (1000)
I0513 09:45:53.585492  3942 net.cpp:129] Top shape: 100 10 1 1 (1000)
I0513 09:45:53.585494  3942 net.cpp:137] Memory required for data: 293984400
I0513 09:45:53.585497  3942 layer_factory.hpp:77] Creating layer accuracy
I0513 09:45:53.585505  3942 net.cpp:84] Creating Layer accuracy
I0513 09:45:53.585508  3942 net.cpp:406] accuracy <- pool_pool_0_split_0
I0513 09:45:53.585512  3942 net.cpp:406] accuracy <- label_cifar_1_split_0
I0513 09:45:53.585517  3942 net.cpp:380] accuracy -> accuracy
…
