…
I0513 17:07:51.081243  2572 net.cpp:294] The NetState phase (0) differed from the phase (1) specified by a rule in layer cifar
I0513 17:07:51.081384  2572 net.cpp:51] Initializing net from parameters: 
name: "CIFAR10_mlp"
state {
  phase: TRAIN
  level: 0
  stage: ""
}
layer {
  name: "cifar"
  type: "Data"
  top: "data"
  top: "label"
  include {
    phase: TRAIN
  }
  transform_param {
    mean_file: "../caffe/examples/cifar10/mean.binaryproto"
  }
  data_param {
    source: "../caffe/examples/cifar10/cifar10_train_lmdb"
    batch_size: 100
    backend: LMDB
  }
}
layer {
  name: "drop1"
  type: "Dropout"
  bottom: "data"
  top: "data"
  dropout_param {
    dropout_ratio: 0.2
  }
}
layer {
  name: "conv1"
  type: "Convolution"
  bottom: "data"
  top: "conv1"
  param {
    lr_mult: 1
  }
  param {
    lr_mult: 1
  }
  convolution_param {
    num_output: 96
    pad: 1
    kernel_size: 3
    stride: 1
    weight_filler {
      type: "xavier"
    }
    bias_filler {
      type: "constant"
      value: 0
    }
  }
}
layer {
  name: "relu1"
  type: "ReLU"
  bottom: "conv1"
  top: "conv1"
}
layer {
  name: "conv2"
  type: "Convolution"
  bottom: "conv1"
  top: "conv2"
  param {
    lr_mult: 1
  }
  param {
    lr_mult: 1
  }
  convolution_param {
    num_output: 96
    pad: 1
    kernel_size: 3
    stride: 1
    weight_filler {
      type: "xavier"
    }
    bias_filler {
      type: "constant"
      value: 0
    }
  }
}
layer {
  name: "relu2"
  type: "ReLU"
  bottom: "conv2"
  top: "conv2"
}
layer {
  name: "conv3"
  type: "Convolution"
  bottom: "conv2"
  top: "conv3"
  param {
    lr_mult: 1
  }
  param {
    lr_mult: 1
  }
  convolution_param {
    num_output: 96
    pad: 1
    kernel_size: 3
    stride: 2
    weight_filler {
      type: "xavier"
    }
    bias_filler {
      type: "constant"
      value: 0
    }
  }
}
layer {
  name: "relu3"
  type: "ReLU"
  bottom: "conv3"
  top: "conv3"
}
layer {
  name: "drop2"
  type: "Dropout"
  bottom: "conv3"
  top: "conv3"
  dropout_param {
    dropout_ratio: 0.5
  }
}
layer {
  name: "conv4"
  type: "Convolution"
  bottom: "conv3"
  top: "conv4"
  param {
    lr_mult: 1
  }
  param {
    lr_mult: 1
  }
  convolution_param {
    num_output: 192
    pad: 1
    kernel_size: 3
    stride: 1
    weight_filler {
      type: "xavier"
    }
    bias_filler {
      type: "constant"
      value: 0
    }
  }
}
layer {
  name: "relu4"
  type: "ReLU"
  bottom: "conv4"
  top: "conv4"
}
layer {
  name: "conv5"
  type: "Convolution"
  bottom: "conv4"
  top: "conv5"
  param {
    lr_mult: 1
  }
  param {
    lr_mult: 1
  }
  convolution_param {
    num_output: 192
    pad: 1
    kernel_size: 3
    stride: 1
    weight_filler {
      type: "xavier"
    }
    bias_filler {
      type: "constant"
      value: 0
    }
  }
}
layer {
  name: "relu5"
  type: "ReLU"
  bottom: "conv5"
  top: "conv5"
}
layer {
  name: "conv6"
  type: "Convolution"
  bottom: "conv5"
  top: "conv6"
  param {
    lr_mult: 1
  }
  param {
    lr_mult: 1
  }
  convolution_param {
    num_output: 192
    pad: 1
    kernel_size: 3
    stride: 2
    weight_filler {
      type: "xavier"
    }
    bias_filler {
      type: "constant"
      value: 0
    }
  }
}
layer {
  name: "relu6"
  type: "ReLU"
  bottom: "conv6"
  top: "conv6"
}
layer {
  name: "drop3"
  type: "Dropout"
  bottom: "conv6"
  top: "conv6"
  dropout_param {
    dropout_ratio: 0.5
  }
}
layer {
  name: "conv7"
  type: "Convolution"
  bottom: "conv6"
  top: "conv7"
  param {
    lr_mult: 1
  }
  param {
    lr_mult: 1
  }
  convolution_param {
    num_output: 192
    kernel_size: 3
    stride: 1
    weight_filler {
      type: "xavier"
    }
    bias_filler {
      type: "constant"
      value: 0
    }
  }
}
layer {
  name: "relu7"
  type: "ReLU"
  bottom: "conv7"
  top: "conv7"
}
layer {
  name: "conv8"
  type: "Convolution"
  bottom: "conv7"
  top: "conv8"
  param {
    lr_mult: 1
  }
  param {
    lr_mult: 1
  }
  convolution_param {
    num_output: 192
    kernel_size: 1
    stride: 1
    weight_filler {
      type: "xavier"
    }
    bias_filler {
      type: "constant"
      value: 0
    }
  }
}
layer {
  name: "relu8"
  type: "ReLU"
  bottom: "conv8"
  top: "conv8"
}
layer {
  name: "conv9"
  type: "Convolution"
  bottom: "conv8"
  top: "conv9"
  param {
    lr_mult: 1
  }
  param {
    lr_mult: 1
  }
  convolution_param {
    num_output: 10
    kernel_size: 1
    stride: 1
    weight_filler {
      type: "xavier"
    }
    bias_filler {
      type: "constant"
      value: 0
    }
  }
}
layer {
  name: "relu9"
  type: "ReLU"
  bottom: "conv9"
  top: "conv9"
}
layer {
  name: "pool"
  type: "Pooling"
  bottom: "conv9"
  top: "pool"
  pooling_param {
    pool: AVE
    global_pooling: true
  }
}
layer {
  name: "accuracy"
  type: "Accuracy"
  bottom: "pool"
  bottom: "label"
  top: "accuracy"
}
layer {
  name: "loss"
  type: "SoftmaxWithLoss"
  bottom: "pool"
  bottom: "label"
  top: "loss"
}
I0513 17:07:51.081506  2572 layer_factory.hpp:77] Creating layer cifar
I0513 17:07:51.081609  2572 db_lmdb.cpp:35] Opened lmdb ../caffe/examples/cifar10/cifar10_train_lmdb
I0513 17:07:51.081642  2572 net.cpp:84] Creating Layer cifar
I0513 17:07:51.081650  2572 net.cpp:380] cifar -> data
I0513 17:07:51.081673  2572 net.cpp:380] cifar -> label
I0513 17:07:51.081686  2572 data_transformer.cpp:25] Loading mean file from: ../caffe/examples/cifar10/mean.binaryproto
I0513 17:07:51.081771  2572 data_layer.cpp:45] output data size: 100,3,32,32
I0513 17:07:51.081878  2572 net.cpp:122] Setting up cifar
I0513 17:07:51.081888  2572 net.cpp:129] Top shape: 100 3 32 32 (307200)
I0513 17:07:51.081892  2572 net.cpp:129] Top shape: 100 (100)
I0513 17:07:51.081895  2572 net.cpp:137] Memory required for data: 1229200
I0513 17:07:51.081902  2572 layer_factory.hpp:77] Creating layer label_cifar_1_split
I0513 17:07:51.081908  2572 net.cpp:84] Creating Layer label_cifar_1_split
I0513 17:07:51.081913  2572 net.cpp:406] label_cifar_1_split <- label
I0513 17:07:51.081923  2572 net.cpp:380] label_cifar_1_split -> label_cifar_1_split_0
I0513 17:07:51.081929  2572 net.cpp:380] label_cifar_1_split -> label_cifar_1_split_1
I0513 17:07:51.081940  2572 net.cpp:122] Setting up label_cifar_1_split
I0513 17:07:51.081944  2572 net.cpp:129] Top shape: 100 (100)
I0513 17:07:51.081948  2572 net.cpp:129] Top shape: 100 (100)
I0513 17:07:51.081951  2572 net.cpp:137] Memory required for data: 1230000
I0513 17:07:51.081954  2572 layer_factory.hpp:77] Creating layer drop1
I0513 17:07:51.081960  2572 net.cpp:84] Creating Layer drop1
I0513 17:07:51.081964  2572 net.cpp:406] drop1 <- data
I0513 17:07:51.081967  2572 net.cpp:367] drop1 -> data (in-place)
I0513 17:07:51.081995  2572 net.cpp:122] Setting up drop1
I0513 17:07:51.081998  2572 net.cpp:129] Top shape: 100 3 32 32 (307200)
I0513 17:07:51.082001  2572 net.cpp:137] Memory required for data: 2458800
I0513 17:07:51.082005  2572 layer_factory.hpp:77] Creating layer conv1
I0513 17:07:51.082020  2572 net.cpp:84] Creating Layer conv1
I0513 17:07:51.082022  2572 net.cpp:406] conv1 <- data
I0513 17:07:51.082027  2572 net.cpp:380] conv1 -> conv1
I0513 17:07:51.082098  2572 net.cpp:122] Setting up conv1
I0513 17:07:51.082103  2572 net.cpp:129] Top shape: 100 96 32 32 (9830400)
I0513 17:07:51.082105  2572 net.cpp:137] Memory required for data: 41780400
I0513 17:07:51.082121  2572 layer_factory.hpp:77] Creating layer relu1
I0513 17:07:51.082130  2572 net.cpp:84] Creating Layer relu1
I0513 17:07:51.082134  2572 net.cpp:406] relu1 <- conv1
I0513 17:07:51.082139  2572 net.cpp:367] relu1 -> conv1 (in-place)
I0513 17:07:51.082149  2572 net.cpp:122] Setting up relu1
I0513 17:07:51.082154  2572 net.cpp:129] Top shape: 100 96 32 32 (9830400)
I0513 17:07:51.082170  2572 net.cpp:137] Memory required for data: 81102000
I0513 17:07:51.082173  2572 layer_factory.hpp:77] Creating layer conv2
I0513 17:07:51.082180  2572 net.cpp:84] Creating Layer conv2
I0513 17:07:51.082182  2572 net.cpp:406] conv2 <- conv1
I0513 17:07:51.082195  2572 net.cpp:380] conv2 -> conv2
I0513 17:07:51.083103  2572 net.cpp:122] Setting up conv2
I0513 17:07:51.083115  2572 net.cpp:129] Top shape: 100 96 32 32 (9830400)
I0513 17:07:51.083118  2572 net.cpp:137] Memory required for data: 120423600
I0513 17:07:51.083125  2572 layer_factory.hpp:77] Creating layer relu2
I0513 17:07:51.083132  2572 net.cpp:84] Creating Layer relu2
I0513 17:07:51.083137  2572 net.cpp:406] relu2 <- conv2
I0513 17:07:51.083140  2572 net.cpp:367] relu2 -> conv2 (in-place)
I0513 17:07:51.083154  2572 net.cpp:122] Setting up relu2
I0513 17:07:51.083158  2572 net.cpp:129] Top shape: 100 96 32 32 (9830400)
I0513 17:07:51.083161  2572 net.cpp:137] Memory required for data: 159745200
I0513 17:07:51.083165  2572 layer_factory.hpp:77] Creating layer conv3
I0513 17:07:51.083173  2572 net.cpp:84] Creating Layer conv3
I0513 17:07:51.083178  2572 net.cpp:406] conv3 <- conv2
I0513 17:07:51.083183  2572 net.cpp:380] conv3 -> conv3
I0513 17:07:51.083995  2572 net.cpp:122] Setting up conv3
I0513 17:07:51.084005  2572 net.cpp:129] Top shape: 100 96 16 16 (2457600)
I0513 17:07:51.084012  2572 net.cpp:137] Memory required for data: 169575600
I0513 17:07:51.084022  2572 layer_factory.hpp:77] Creating layer relu3
I0513 17:07:51.084030  2572 net.cpp:84] Creating Layer relu3
I0513 17:07:51.084034  2572 net.cpp:406] relu3 <- conv3
I0513 17:07:51.084039  2572 net.cpp:367] relu3 -> conv3 (in-place)
I0513 17:07:51.084044  2572 net.cpp:122] Setting up relu3
I0513 17:07:51.084049  2572 net.cpp:129] Top shape: 100 96 16 16 (2457600)
I0513 17:07:51.084053  2572 net.cpp:137] Memory required for data: 179406000
I0513 17:07:51.084055  2572 layer_factory.hpp:77] Creating layer drop2
I0513 17:07:51.084060  2572 net.cpp:84] Creating Layer drop2
I0513 17:07:51.084064  2572 net.cpp:406] drop2 <- conv3
I0513 17:07:51.084069  2572 net.cpp:367] drop2 -> conv3 (in-place)
I0513 17:07:51.084074  2572 net.cpp:122] Setting up drop2
I0513 17:07:51.084100  2572 net.cpp:129] Top shape: 100 96 16 16 (2457600)
I0513 17:07:51.084102  2572 net.cpp:137] Memory required for data: 189236400
I0513 17:07:51.084105  2572 layer_factory.hpp:77] Creating layer conv4
I0513 17:07:51.084219  2572 net.cpp:84] Creating Layer conv4
I0513 17:07:51.084223  2572 net.cpp:406] conv4 <- conv3
I0513 17:07:51.084228  2572 net.cpp:380] conv4 -> conv4
I0513 17:07:51.086467  2572 net.cpp:122] Setting up conv4
I0513 17:07:51.086477  2572 net.cpp:129] Top shape: 100 192 16 16 (4915200)
I0513 17:07:51.086479  2572 net.cpp:137] Memory required for data: 208897200
I0513 17:07:51.086485  2572 layer_factory.hpp:77] Creating layer relu4
I0513 17:07:51.086493  2572 net.cpp:84] Creating Layer relu4
I0513 17:07:51.086496  2572 net.cpp:406] relu4 <- conv4
I0513 17:07:51.086501  2572 net.cpp:367] relu4 -> conv4 (in-place)
I0513 17:07:51.086510  2572 net.cpp:122] Setting up relu4
I0513 17:07:51.086516  2572 net.cpp:129] Top shape: 100 192 16 16 (4915200)
I0513 17:07:51.086519  2572 net.cpp:137] Memory required for data: 228558000
I0513 17:07:51.086522  2572 layer_factory.hpp:77] Creating layer conv5
I0513 17:07:51.086529  2572 net.cpp:84] Creating Layer conv5
I0513 17:07:51.086532  2572 net.cpp:406] conv5 <- conv4
I0513 17:07:51.086539  2572 net.cpp:380] conv5 -> conv5
I0513 17:07:51.089565  2572 net.cpp:122] Setting up conv5
I0513 17:07:51.089579  2572 net.cpp:129] Top shape: 100 192 16 16 (4915200)
I0513 17:07:51.089582  2572 net.cpp:137] Memory required for data: 248218800
I0513 17:07:51.089591  2572 layer_factory.hpp:77] Creating layer relu5
I0513 17:07:51.089596  2572 net.cpp:84] Creating Layer relu5
I0513 17:07:51.089598  2572 net.cpp:406] relu5 <- conv5
I0513 17:07:51.089603  2572 net.cpp:367] relu5 -> conv5 (in-place)
I0513 17:07:51.089608  2572 net.cpp:122] Setting up relu5
I0513 17:07:51.089618  2572 net.cpp:129] Top shape: 100 192 16 16 (4915200)
I0513 17:07:51.089630  2572 net.cpp:137] Memory required for data: 267879600
I0513 17:07:51.089633  2572 layer_factory.hpp:77] Creating layer conv6
I0513 17:07:51.089643  2572 net.cpp:84] Creating Layer conv6
I0513 17:07:51.089645  2572 net.cpp:406] conv6 <- conv5
I0513 17:07:51.089650  2572 net.cpp:380] conv6 -> conv6
I0513 17:07:51.092651  2572 net.cpp:122] Setting up conv6
I0513 17:07:51.092682  2572 net.cpp:129] Top shape: 100 192 8 8 (1228800)
I0513 17:07:51.092687  2572 net.cpp:137] Memory required for data: 272794800
I0513 17:07:51.092696  2572 layer_factory.hpp:77] Creating layer relu6
I0513 17:07:51.092701  2572 net.cpp:84] Creating Layer relu6
I0513 17:07:51.092705  2572 net.cpp:406] relu6 <- conv6
I0513 17:07:51.092710  2572 net.cpp:367] relu6 -> conv6 (in-place)
I0513 17:07:51.092715  2572 net.cpp:122] Setting up relu6
I0513 17:07:51.092720  2572 net.cpp:129] Top shape: 100 192 8 8 (1228800)
I0513 17:07:51.092723  2572 net.cpp:137] Memory required for data: 277710000
I0513 17:07:51.092726  2572 layer_factory.hpp:77] Creating layer drop3
I0513 17:07:51.092734  2572 net.cpp:84] Creating Layer drop3
I0513 17:07:51.092737  2572 net.cpp:406] drop3 <- conv6
I0513 17:07:51.092742  2572 net.cpp:367] drop3 -> conv6 (in-place)
I0513 17:07:51.092748  2572 net.cpp:122] Setting up drop3
I0513 17:07:51.092752  2572 net.cpp:129] Top shape: 100 192 8 8 (1228800)
I0513 17:07:51.092756  2572 net.cpp:137] Memory required for data: 282625200
I0513 17:07:51.092758  2572 layer_factory.hpp:77] Creating layer conv7
I0513 17:07:51.092766  2572 net.cpp:84] Creating Layer conv7
I0513 17:07:51.092768  2572 net.cpp:406] conv7 <- conv6
I0513 17:07:51.092775  2572 net.cpp:380] conv7 -> conv7
I0513 17:07:51.095687  2572 net.cpp:122] Setting up conv7
I0513 17:07:51.095698  2572 net.cpp:129] Top shape: 100 192 6 6 (691200)
I0513 17:07:51.095701  2572 net.cpp:137] Memory required for data: 285390000
I0513 17:07:51.095706  2572 layer_factory.hpp:77] Creating layer relu7
I0513 17:07:51.095710  2572 net.cpp:84] Creating Layer relu7
I0513 17:07:51.095715  2572 net.cpp:406] relu7 <- conv7
I0513 17:07:51.095718  2572 net.cpp:367] relu7 -> conv7 (in-place)
I0513 17:07:51.095723  2572 net.cpp:122] Setting up relu7
I0513 17:07:51.095727  2572 net.cpp:129] Top shape: 100 192 6 6 (691200)
I0513 17:07:51.095731  2572 net.cpp:137] Memory required for data: 288154800
I0513 17:07:51.095733  2572 layer_factory.hpp:77] Creating layer conv8
I0513 17:07:51.095741  2572 net.cpp:84] Creating Layer conv8
I0513 17:07:51.095744  2572 net.cpp:406] conv8 <- conv7
I0513 17:07:51.095748  2572 net.cpp:380] conv8 -> conv8
I0513 17:07:51.096110  2572 net.cpp:122] Setting up conv8
I0513 17:07:51.096117  2572 net.cpp:129] Top shape: 100 192 6 6 (691200)
I0513 17:07:51.096120  2572 net.cpp:137] Memory required for data: 290919600
I0513 17:07:51.096125  2572 layer_factory.hpp:77] Creating layer relu8
I0513 17:07:51.096129  2572 net.cpp:84] Creating Layer relu8
I0513 17:07:51.096133  2572 net.cpp:406] relu8 <- conv8
I0513 17:07:51.096138  2572 net.cpp:367] relu8 -> conv8 (in-place)
I0513 17:07:51.096141  2572 net.cpp:122] Setting up relu8
I0513 17:07:51.096145  2572 net.cpp:129] Top shape: 100 192 6 6 (691200)
I0513 17:07:51.096148  2572 net.cpp:137] Memory required for data: 293684400
I0513 17:07:51.096151  2572 layer_factory.hpp:77] Creating layer conv9
I0513 17:07:51.096159  2572 net.cpp:84] Creating Layer conv9
I0513 17:07:51.096163  2572 net.cpp:406] conv9 <- conv8
I0513 17:07:51.096168  2572 net.cpp:380] conv9 -> conv9
I0513 17:07:51.096200  2572 net.cpp:122] Setting up conv9
I0513 17:07:51.096210  2572 net.cpp:129] Top shape: 100 10 6 6 (36000)
I0513 17:07:51.096212  2572 net.cpp:137] Memory required for data: 293828400
I0513 17:07:51.096220  2572 layer_factory.hpp:77] Creating layer relu9
I0513 17:07:51.096225  2572 net.cpp:84] Creating Layer relu9
I0513 17:07:51.096227  2572 net.cpp:406] relu9 <- conv9
I0513 17:07:51.096231  2572 net.cpp:367] relu9 -> conv9 (in-place)
I0513 17:07:51.096241  2572 net.cpp:122] Setting up relu9
I0513 17:07:51.096251  2572 net.cpp:129] Top shape: 100 10 6 6 (36000)
I0513 17:07:51.096254  2572 net.cpp:137] Memory required for data: 293972400
I0513 17:07:51.096257  2572 layer_factory.hpp:77] Creating layer pool
I0513 17:07:51.096262  2572 net.cpp:84] Creating Layer pool
I0513 17:07:51.096266  2572 net.cpp:406] pool <- conv9
I0513 17:07:51.096271  2572 net.cpp:380] pool -> pool
I0513 17:07:51.096292  2572 net.cpp:122] Setting up pool
I0513 17:07:51.096295  2572 net.cpp:129] Top shape: 100 10 1 1 (1000)
I0513 17:07:51.096298  2572 net.cpp:137] Memory required for data: 293976400
I0513 17:07:51.096302  2572 layer_factory.hpp:77] Creating layer pool_pool_0_split
I0513 17:07:51.096307  2572 net.cpp:84] Creating Layer pool_pool_0_split
I0513 17:07:51.096310  2572 net.cpp:406] pool_pool_0_split <- pool
I0513 17:07:51.096315  2572 net.cpp:380] pool_pool_0_split -> pool_pool_0_split_0
I0513 17:07:51.096320  2572 net.cpp:380] pool_pool_0_split -> pool_pool_0_split_1
I0513 17:07:51.096328  2572 net.cpp:122] Setting up pool_pool_0_split
I0513 17:07:51.096331  2572 net.cpp:129] Top shape: 100 10 1 1 (1000)
I0513 17:07:51.096335  2572 net.cpp:129] Top shape: 100 10 1 1 (1000)
I0513 17:07:51.096338  2572 net.cpp:137] Memory required for data: 293984400
I0513 17:07:51.096341  2572 layer_factory.hpp:77] Creating layer accuracy
I0513 17:07:51.096348  2572 net.cpp:84] Creating Layer accuracy
I0513 17:07:51.096351  2572 net.cpp:406] accuracy <- pool_pool_0_split_0
I0513 17:07:51.096355  2572 net.cpp:406] accuracy <- label_cifar_1_split_0
I0513 17:07:51.096360  2572 net.cpp:380] accuracy -> accuracy
…
