…
I0515 15:24:16.187213  5898 net.cpp:294] The NetState phase (0) differed from the phase (1) specified by a rule in layer cifar
I0515 15:24:16.187312  5898 net.cpp:51] Initializing net from parameters: 
name: "CIFAR10_mlp"
state {
  phase: TRAIN
  level: 0
  stage: ""
}
layer {
  name: "cifar"
  type: "Data"
  top: "data"
  top: "label"
  include {
    phase: TRAIN
  }
  transform_param {
    scale: 0.1
    mirror: true
    crop_size: 30
    mean_file: "../caffe/examples/cifar10/mean.binaryproto"
  }
  data_param {
    source: "../caffe/examples/cifar10/cifar10_train_lmdb"
    batch_size: 100
    backend: LMDB
  }
}
layer {
  name: "drop1"
  type: "Dropout"
  bottom: "data"
  top: "data"
  dropout_param {
    dropout_ratio: 0.2
  }
}
layer {
  name: "ip11"
  type: "InnerProduct"
  bottom: "data"
  top: "ip11"
  param {
    lr_mult: 1
  }
  param {
    lr_mult: 2
  }
  inner_product_param {
    num_output: 1024
    weight_filler {
      type: "xavier"
    }
    bias_filler {
      type: "constant"
    }
  }
}
layer {
  name: "relu1"
  type: "ReLU"
  bottom: "ip11"
  top: "ip11"
}
layer {
  name: "ip14"
  type: "InnerProduct"
  bottom: "ip11"
  top: "ip14"
  param {
    lr_mult: 1
  }
  param {
    lr_mult: 2
  }
  inner_product_param {
    num_output: 1024
    weight_filler {
      type: "xavier"
    }
    bias_filler {
      type: "constant"
    }
  }
}
layer {
  name: "relu4"
  type: "ReLU"
  bottom: "ip14"
  top: "ip14"
}
layer {
  name: "ip15"
  type: "InnerProduct"
  bottom: "ip14"
  top: "ip15"
  param {
    lr_mult: 1
  }
  param {
    lr_mult: 2
  }
  inner_product_param {
    num_output: 1024
    weight_filler {
      type: "xavier"
    }
    bias_filler {
      type: "constant"
    }
  }
}
layer {
  name: "relu5"
  type: "ReLU"
  bottom: "ip15"
  top: "ip15"
}
layer {
  name: "ip16"
  type: "InnerProduct"
  bottom: "ip15"
  top: "ip16"
  param {
    lr_mult: 1
  }
  param {
    lr_mult: 2
  }
  inner_product_param {
    num_output: 1024
    weight_filler {
      type: "xavier"
    }
    bias_filler {
      type: "constant"
    }
  }
}
layer {
  name: "relu6"
  type: "ReLU"
  bottom: "ip16"
  top: "ip16"
}
layer {
  name: "ip17"
  type: "InnerProduct"
  bottom: "ip16"
  top: "ip17"
  param {
    lr_mult: 1
  }
  param {
    lr_mult: 2
  }
  inner_product_param {
    num_output: 1024
    weight_filler {
      type: "xavier"
    }
    bias_filler {
      type: "constant"
    }
  }
}
layer {
  name: "relu7"
  type: "ReLU"
  bottom: "ip17"
  top: "ip17"
}
layer {
  name: "ip18"
  type: "InnerProduct"
  bottom: "ip17"
  top: "ip18"
  param {
    lr_mult: 1
  }
  param {
    lr_mult: 2
  }
  inner_product_param {
    num_output: 1024
    weight_filler {
      type: "xavier"
    }
    bias_filler {
      type: "constant"
    }
  }
}
layer {
  name: "relu8"
  type: "ReLU"
  bottom: "ip18"
  top: "ip18"
}
layer {
  name: "encode1neuron"
  type: "Sigmoid"
  bottom: "ip18"
  top: "encode"
}
layer {
  name: "ip5"
  type: "InnerProduct"
  bottom: "encode"
  top: "ip6"
  param {
    lr_mult: 1
  }
  param {
    lr_mult: 2
  }
  inner_product_param {
    num_output: 1024
    weight_filler {
      type: "gaussian"
      std: 0.1
    }
    bias_filler {
      type: "constant"
    }
  }
}
layer {
  name: "accuracy"
  type: "Accuracy"
  bottom: "ip6"
  bottom: "label"
  top: "accuracy"
}
layer {
  name: "loss"
  type: "SoftmaxWithLoss"
  bottom: "ip6"
  bottom: "label"
  top: "loss"
}
I0515 15:24:16.187422  5898 layer_factory.hpp:77] Creating layer cifar
I0515 15:24:16.187546  5898 db_lmdb.cpp:35] Opened lmdb ../caffe/examples/cifar10/cifar10_train_lmdb
I0515 15:24:16.187580  5898 net.cpp:84] Creating Layer cifar
I0515 15:24:16.187589  5898 net.cpp:380] cifar -> data
I0515 15:24:16.187613  5898 net.cpp:380] cifar -> label
I0515 15:24:16.187629  5898 data_transformer.cpp:25] Loading mean file from: ../caffe/examples/cifar10/mean.binaryproto
I0515 15:24:16.187767  5898 data_layer.cpp:45] output data size: 100,3,30,30
I0515 15:24:16.187835  5898 net.cpp:122] Setting up cifar
I0515 15:24:16.187844  5898 net.cpp:129] Top shape: 100 3 30 30 (270000)
I0515 15:24:16.187847  5898 net.cpp:129] Top shape: 100 (100)
I0515 15:24:16.187850  5898 net.cpp:137] Memory required for data: 1080400
I0515 15:24:16.187856  5898 layer_factory.hpp:77] Creating layer label_cifar_1_split
I0515 15:24:16.187862  5898 net.cpp:84] Creating Layer label_cifar_1_split
I0515 15:24:16.187867  5898 net.cpp:406] label_cifar_1_split <- label
I0515 15:24:16.187889  5898 net.cpp:380] label_cifar_1_split -> label_cifar_1_split_0
I0515 15:24:16.187896  5898 net.cpp:380] label_cifar_1_split -> label_cifar_1_split_1
I0515 15:24:16.187906  5898 net.cpp:122] Setting up label_cifar_1_split
I0515 15:24:16.187909  5898 net.cpp:129] Top shape: 100 (100)
I0515 15:24:16.187913  5898 net.cpp:129] Top shape: 100 (100)
I0515 15:24:16.187916  5898 net.cpp:137] Memory required for data: 1081200
I0515 15:24:16.187919  5898 layer_factory.hpp:77] Creating layer drop1
I0515 15:24:16.187924  5898 net.cpp:84] Creating Layer drop1
I0515 15:24:16.187927  5898 net.cpp:406] drop1 <- data
I0515 15:24:16.187932  5898 net.cpp:367] drop1 -> data (in-place)
I0515 15:24:16.187942  5898 net.cpp:122] Setting up drop1
I0515 15:24:16.187947  5898 net.cpp:129] Top shape: 100 3 30 30 (270000)
I0515 15:24:16.187949  5898 net.cpp:137] Memory required for data: 2161200
I0515 15:24:16.187952  5898 layer_factory.hpp:77] Creating layer ip11
I0515 15:24:16.187958  5898 net.cpp:84] Creating Layer ip11
I0515 15:24:16.187961  5898 net.cpp:406] ip11 <- data
I0515 15:24:16.187966  5898 net.cpp:380] ip11 -> ip11
I0515 15:24:16.232913  5898 net.cpp:122] Setting up ip11
I0515 15:24:16.232969  5898 net.cpp:129] Top shape: 100 1024 (102400)
I0515 15:24:16.232972  5898 net.cpp:137] Memory required for data: 2570800
I0515 15:24:16.233006  5898 layer_factory.hpp:77] Creating layer relu1
I0515 15:24:16.233026  5898 net.cpp:84] Creating Layer relu1
I0515 15:24:16.233031  5898 net.cpp:406] relu1 <- ip11
I0515 15:24:16.233038  5898 net.cpp:367] relu1 -> ip11 (in-place)
I0515 15:24:16.233048  5898 net.cpp:122] Setting up relu1
I0515 15:24:16.233053  5898 net.cpp:129] Top shape: 100 1024 (102400)
I0515 15:24:16.233057  5898 net.cpp:137] Memory required for data: 2980400
I0515 15:24:16.233060  5898 layer_factory.hpp:77] Creating layer ip14
I0515 15:24:16.233068  5898 net.cpp:84] Creating Layer ip14
I0515 15:24:16.233072  5898 net.cpp:406] ip14 <- ip11
I0515 15:24:16.233077  5898 net.cpp:380] ip14 -> ip14
I0515 15:24:16.256319  5898 net.cpp:122] Setting up ip14
I0515 15:24:16.256379  5898 net.cpp:129] Top shape: 100 1024 (102400)
I0515 15:24:16.256384  5898 net.cpp:137] Memory required for data: 3390000
I0515 15:24:16.256402  5898 layer_factory.hpp:77] Creating layer relu4
I0515 15:24:16.256414  5898 net.cpp:84] Creating Layer relu4
I0515 15:24:16.256420  5898 net.cpp:406] relu4 <- ip14
I0515 15:24:16.256428  5898 net.cpp:367] relu4 -> ip14 (in-place)
I0515 15:24:16.256439  5898 net.cpp:122] Setting up relu4
I0515 15:24:16.256444  5898 net.cpp:129] Top shape: 100 1024 (102400)
I0515 15:24:16.256448  5898 net.cpp:137] Memory required for data: 3799600
I0515 15:24:16.256470  5898 layer_factory.hpp:77] Creating layer ip15
I0515 15:24:16.256479  5898 net.cpp:84] Creating Layer ip15
I0515 15:24:16.256484  5898 net.cpp:406] ip15 <- ip14
I0515 15:24:16.256521  5898 net.cpp:380] ip15 -> ip15
I0515 15:24:16.268709  5898 net.cpp:122] Setting up ip15
I0515 15:24:16.268752  5898 net.cpp:129] Top shape: 100 1024 (102400)
I0515 15:24:16.268756  5898 net.cpp:137] Memory required for data: 4209200
I0515 15:24:16.268771  5898 layer_factory.hpp:77] Creating layer relu5
I0515 15:24:16.268784  5898 net.cpp:84] Creating Layer relu5
I0515 15:24:16.268790  5898 net.cpp:406] relu5 <- ip15
I0515 15:24:16.268797  5898 net.cpp:367] relu5 -> ip15 (in-place)
I0515 15:24:16.268807  5898 net.cpp:122] Setting up relu5
I0515 15:24:16.268812  5898 net.cpp:129] Top shape: 100 1024 (102400)
I0515 15:24:16.268815  5898 net.cpp:137] Memory required for data: 4618800
I0515 15:24:16.268818  5898 layer_factory.hpp:77] Creating layer ip16
I0515 15:24:16.268826  5898 net.cpp:84] Creating Layer ip16
I0515 15:24:16.268829  5898 net.cpp:406] ip16 <- ip15
I0515 15:24:16.268836  5898 net.cpp:380] ip16 -> ip16
I0515 15:24:16.279319  5898 net.cpp:122] Setting up ip16
I0515 15:24:16.279350  5898 net.cpp:129] Top shape: 100 1024 (102400)
I0515 15:24:16.279355  5898 net.cpp:137] Memory required for data: 5028400
I0515 15:24:16.279366  5898 layer_factory.hpp:77] Creating layer relu6
I0515 15:24:16.279377  5898 net.cpp:84] Creating Layer relu6
I0515 15:24:16.279382  5898 net.cpp:406] relu6 <- ip16
I0515 15:24:16.279388  5898 net.cpp:367] relu6 -> ip16 (in-place)
I0515 15:24:16.279397  5898 net.cpp:122] Setting up relu6
I0515 15:24:16.279402  5898 net.cpp:129] Top shape: 100 1024 (102400)
I0515 15:24:16.279405  5898 net.cpp:137] Memory required for data: 5438000
I0515 15:24:16.279408  5898 layer_factory.hpp:77] Creating layer ip17
I0515 15:24:16.279415  5898 net.cpp:84] Creating Layer ip17
I0515 15:24:16.279418  5898 net.cpp:406] ip17 <- ip16
I0515 15:24:16.279423  5898 net.cpp:380] ip17 -> ip17
I0515 15:24:16.289083  5898 net.cpp:122] Setting up ip17
I0515 15:24:16.289113  5898 net.cpp:129] Top shape: 100 1024 (102400)
I0515 15:24:16.289116  5898 net.cpp:137] Memory required for data: 5847600
I0515 15:24:16.289127  5898 layer_factory.hpp:77] Creating layer relu7
I0515 15:24:16.289135  5898 net.cpp:84] Creating Layer relu7
I0515 15:24:16.289139  5898 net.cpp:406] relu7 <- ip17
I0515 15:24:16.289146  5898 net.cpp:367] relu7 -> ip17 (in-place)
I0515 15:24:16.289155  5898 net.cpp:122] Setting up relu7
I0515 15:24:16.289158  5898 net.cpp:129] Top shape: 100 1024 (102400)
I0515 15:24:16.289161  5898 net.cpp:137] Memory required for data: 6257200
I0515 15:24:16.289165  5898 layer_factory.hpp:77] Creating layer ip18
I0515 15:24:16.289173  5898 net.cpp:84] Creating Layer ip18
I0515 15:24:16.289176  5898 net.cpp:406] ip18 <- ip17
I0515 15:24:16.289182  5898 net.cpp:380] ip18 -> ip18
I0515 15:24:16.297808  5898 net.cpp:122] Setting up ip18
I0515 15:24:16.297832  5898 net.cpp:129] Top shape: 100 1024 (102400)
I0515 15:24:16.297837  5898 net.cpp:137] Memory required for data: 6666800
I0515 15:24:16.297844  5898 layer_factory.hpp:77] Creating layer relu8
I0515 15:24:16.297852  5898 net.cpp:84] Creating Layer relu8
I0515 15:24:16.297857  5898 net.cpp:406] relu8 <- ip18
I0515 15:24:16.297863  5898 net.cpp:367] relu8 -> ip18 (in-place)
I0515 15:24:16.297870  5898 net.cpp:122] Setting up relu8
I0515 15:24:16.297874  5898 net.cpp:129] Top shape: 100 1024 (102400)
I0515 15:24:16.297878  5898 net.cpp:137] Memory required for data: 7076400
I0515 15:24:16.297881  5898 layer_factory.hpp:77] Creating layer encode1neuron
I0515 15:24:16.297886  5898 net.cpp:84] Creating Layer encode1neuron
I0515 15:24:16.297890  5898 net.cpp:406] encode1neuron <- ip18
I0515 15:24:16.297894  5898 net.cpp:380] encode1neuron -> encode
I0515 15:24:16.297900  5898 net.cpp:122] Setting up encode1neuron
I0515 15:24:16.297904  5898 net.cpp:129] Top shape: 100 1024 (102400)
I0515 15:24:16.297907  5898 net.cpp:137] Memory required for data: 7486000
I0515 15:24:16.297911  5898 layer_factory.hpp:77] Creating layer ip5
I0515 15:24:16.297930  5898 net.cpp:84] Creating Layer ip5
I0515 15:24:16.297933  5898 net.cpp:406] ip5 <- encode
I0515 15:24:16.297948  5898 net.cpp:380] ip5 -> ip6
I0515 15:24:16.317504  5898 net.cpp:122] Setting up ip5
I0515 15:24:16.317533  5898 net.cpp:129] Top shape: 100 1024 (102400)
I0515 15:24:16.317538  5898 net.cpp:137] Memory required for data: 7895600
I0515 15:24:16.317548  5898 layer_factory.hpp:77] Creating layer ip6_ip5_0_split
I0515 15:24:16.317556  5898 net.cpp:84] Creating Layer ip6_ip5_0_split
I0515 15:24:16.317561  5898 net.cpp:406] ip6_ip5_0_split <- ip6
I0515 15:24:16.317571  5898 net.cpp:380] ip6_ip5_0_split -> ip6_ip5_0_split_0
I0515 15:24:16.317579  5898 net.cpp:380] ip6_ip5_0_split -> ip6_ip5_0_split_1
I0515 15:24:16.317587  5898 net.cpp:122] Setting up ip6_ip5_0_split
I0515 15:24:16.317594  5898 net.cpp:129] Top shape: 100 1024 (102400)
I0515 15:24:16.317597  5898 net.cpp:129] Top shape: 100 1024 (102400)
I0515 15:24:16.317600  5898 net.cpp:137] Memory required for data: 8714800
I0515 15:24:16.317603  5898 layer_factory.hpp:77] Creating layer accuracy
I0515 15:24:16.317610  5898 net.cpp:84] Creating Layer accuracy
I0515 15:24:16.317613  5898 net.cpp:406] accuracy <- ip6_ip5_0_split_0
I0515 15:24:16.317618  5898 net.cpp:406] accuracy <- label_cifar_1_split_0
I0515 15:24:16.317623  5898 net.cpp:380] accuracy -> accuracy
…
