…
I0513 00:35:58.016227  3187 net.cpp:294] The NetState phase (0) differed from the phase (1) specified by a rule in layer cifar
I0513 00:35:58.016304  3187 net.cpp:51] Initializing net from parameters: 
name: "CIFAR10_mlp"
state {
  phase: TRAIN
  level: 0
  stage: ""
}
layer {
  name: "cifar"
  type: "Data"
  top: "data"
  top: "label"
  include {
    phase: TRAIN
  }
  transform_param {
    mean_file: "../caffe/examples/cifar10/mean.binaryproto"
  }
  data_param {
    source: "../caffe/examples/cifar10/cifar10_train_lmdb"
    batch_size: 100
    backend: LMDB
  }
}
layer {
  name: "conv1"
  type: "Convolution"
  bottom: "data"
  top: "conv1"
  convolution_param {
    num_output: 32
    kernel_size: 4
    weight_filler {
      type: "xavier"
    }
  }
}
layer {
  name: "pool1"
  type: "Pooling"
  bottom: "conv1"
  top: "pool1"
  pooling_param {
    pool: MAX
    kernel_size: 3
    stride: 2
  }
}
layer {
  name: "drop1"
  type: "Dropout"
  bottom: "pool1"
  top: "pool1"
}
layer {
  name: "relu1"
  type: "ReLU"
  bottom: "pool1"
  top: "pool1"
}
layer {
  name: "conv2"
  type: "Convolution"
  bottom: "pool1"
  top: "conv2"
  convolution_param {
    num_output: 42
    kernel_size: 4
    weight_filler {
      type: "xavier"
    }
  }
}
layer {
  name: "pool2"
  type: "Pooling"
  bottom: "conv2"
  top: "pool2"
  pooling_param {
    pool: AVE
    kernel_size: 3
    stride: 2
  }
}
layer {
  name: "drop2"
  type: "Dropout"
  bottom: "pool2"
  top: "pool2"
}
layer {
  name: "relu2"
  type: "ReLU"
  bottom: "pool2"
  top: "pool2"
}
layer {
  name: "conv3"
  type: "Convolution"
  bottom: "pool2"
  top: "conv3"
  convolution_param {
    num_output: 64
    kernel_size: 2
    weight_filler {
      type: "xavier"
    }
  }
}
layer {
  name: "pool3"
  type: "Pooling"
  bottom: "conv3"
  top: "pool3"
  pooling_param {
    pool: MAX
    kernel_size: 2
    stride: 2
  }
}
layer {
  name: "relu3"
  type: "ReLU"
  bottom: "pool3"
  top: "pool3"
}
layer {
  name: "ip1"
  type: "InnerProduct"
  bottom: "pool3"
  top: "ip1"
  inner_product_param {
    num_output: 512
    weight_filler {
      type: "xavier"
    }
  }
}
layer {
  name: "sig1"
  type: "Sigmoid"
  bottom: "ip1"
  top: "ip1"
}
layer {
  name: "ip2"
  type: "InnerProduct"
  bottom: "ip1"
  top: "ip2"
  inner_product_param {
    num_output: 10
    weight_filler {
      type: "xavier"
    }
  }
}
layer {
  name: "accuracy"
  type: "Accuracy"
  bottom: "ip2"
  bottom: "label"
  top: "accuracy"
}
layer {
  name: "loss"
  type: "SoftmaxWithLoss"
  bottom: "ip2"
  bottom: "label"
  top: "loss"
}
I0513 00:35:58.016381  3187 layer_factory.hpp:77] Creating layer cifar
I0513 00:35:58.016463  3187 db_lmdb.cpp:35] Opened lmdb ../caffe/examples/cifar10/cifar10_train_lmdb
I0513 00:35:58.016489  3187 net.cpp:84] Creating Layer cifar
I0513 00:35:58.016496  3187 net.cpp:380] cifar -> data
I0513 00:35:58.016515  3187 net.cpp:380] cifar -> label
I0513 00:35:58.016526  3187 data_transformer.cpp:25] Loading mean file from: ../caffe/examples/cifar10/mean.binaryproto
I0513 00:35:58.016584  3187 data_layer.cpp:45] output data size: 100,3,32,32
I0513 00:35:58.016680  3187 net.cpp:122] Setting up cifar
I0513 00:35:58.016695  3187 net.cpp:129] Top shape: 100 3 32 32 (307200)
I0513 00:35:58.016700  3187 net.cpp:129] Top shape: 100 (100)
I0513 00:35:58.016705  3187 net.cpp:137] Memory required for data: 1229200
I0513 00:35:58.016711  3187 layer_factory.hpp:77] Creating layer label_cifar_1_split
I0513 00:35:58.016717  3187 net.cpp:84] Creating Layer label_cifar_1_split
I0513 00:35:58.016722  3187 net.cpp:406] label_cifar_1_split <- label
I0513 00:35:58.016738  3187 net.cpp:380] label_cifar_1_split -> label_cifar_1_split_0
I0513 00:35:58.016751  3187 net.cpp:380] label_cifar_1_split -> label_cifar_1_split_1
I0513 00:35:58.016759  3187 net.cpp:122] Setting up label_cifar_1_split
I0513 00:35:58.016763  3187 net.cpp:129] Top shape: 100 (100)
I0513 00:35:58.016767  3187 net.cpp:129] Top shape: 100 (100)
I0513 00:35:58.016770  3187 net.cpp:137] Memory required for data: 1230000
I0513 00:35:58.016773  3187 layer_factory.hpp:77] Creating layer conv1
I0513 00:35:58.016783  3187 net.cpp:84] Creating Layer conv1
I0513 00:35:58.016786  3187 net.cpp:406] conv1 <- data
I0513 00:35:58.016791  3187 net.cpp:380] conv1 -> conv1
I0513 00:35:58.016835  3187 net.cpp:122] Setting up conv1
I0513 00:35:58.016840  3187 net.cpp:129] Top shape: 100 32 29 29 (2691200)
I0513 00:35:58.016844  3187 net.cpp:137] Memory required for data: 11994800
I0513 00:35:58.016857  3187 layer_factory.hpp:77] Creating layer pool1
I0513 00:35:58.016863  3187 net.cpp:84] Creating Layer pool1
I0513 00:35:58.016866  3187 net.cpp:406] pool1 <- conv1
I0513 00:35:58.016870  3187 net.cpp:380] pool1 -> pool1
I0513 00:35:58.016882  3187 net.cpp:122] Setting up pool1
I0513 00:35:58.016887  3187 net.cpp:129] Top shape: 100 32 14 14 (627200)
I0513 00:35:58.016891  3187 net.cpp:137] Memory required for data: 14503600
I0513 00:35:58.016893  3187 layer_factory.hpp:77] Creating layer drop1
I0513 00:35:58.016898  3187 net.cpp:84] Creating Layer drop1
I0513 00:35:58.016901  3187 net.cpp:406] drop1 <- pool1
I0513 00:35:58.016906  3187 net.cpp:367] drop1 -> pool1 (in-place)
I0513 00:35:58.016913  3187 net.cpp:122] Setting up drop1
I0513 00:35:58.016917  3187 net.cpp:129] Top shape: 100 32 14 14 (627200)
I0513 00:35:58.016921  3187 net.cpp:137] Memory required for data: 17012400
I0513 00:35:58.016923  3187 layer_factory.hpp:77] Creating layer relu1
I0513 00:35:58.016927  3187 net.cpp:84] Creating Layer relu1
I0513 00:35:58.016930  3187 net.cpp:406] relu1 <- pool1
I0513 00:35:58.016934  3187 net.cpp:367] relu1 -> pool1 (in-place)
I0513 00:35:58.016939  3187 net.cpp:122] Setting up relu1
I0513 00:35:58.016943  3187 net.cpp:129] Top shape: 100 32 14 14 (627200)
I0513 00:35:58.016947  3187 net.cpp:137] Memory required for data: 19521200
I0513 00:35:58.016949  3187 layer_factory.hpp:77] Creating layer conv2
I0513 00:35:58.016954  3187 net.cpp:84] Creating Layer conv2
I0513 00:35:58.016958  3187 net.cpp:406] conv2 <- pool1
I0513 00:35:58.016963  3187 net.cpp:380] conv2 -> conv2
I0513 00:35:58.017161  3187 net.cpp:122] Setting up conv2
I0513 00:35:58.017168  3187 net.cpp:129] Top shape: 100 42 11 11 (508200)
I0513 00:35:58.017171  3187 net.cpp:137] Memory required for data: 21554000
I0513 00:35:58.017177  3187 layer_factory.hpp:77] Creating layer pool2
I0513 00:35:58.017181  3187 net.cpp:84] Creating Layer pool2
I0513 00:35:58.017185  3187 net.cpp:406] pool2 <- conv2
I0513 00:35:58.017195  3187 net.cpp:380] pool2 -> pool2
I0513 00:35:58.017204  3187 net.cpp:122] Setting up pool2
I0513 00:35:58.017208  3187 net.cpp:129] Top shape: 100 42 5 5 (105000)
I0513 00:35:58.017211  3187 net.cpp:137] Memory required for data: 21974000
I0513 00:35:58.017215  3187 layer_factory.hpp:77] Creating layer drop2
I0513 00:35:58.017220  3187 net.cpp:84] Creating Layer drop2
I0513 00:35:58.017222  3187 net.cpp:406] drop2 <- pool2
I0513 00:35:58.017228  3187 net.cpp:367] drop2 -> pool2 (in-place)
I0513 00:35:58.017233  3187 net.cpp:122] Setting up drop2
I0513 00:35:58.017237  3187 net.cpp:129] Top shape: 100 42 5 5 (105000)
I0513 00:35:58.017241  3187 net.cpp:137] Memory required for data: 22394000
I0513 00:35:58.017243  3187 layer_factory.hpp:77] Creating layer relu2
I0513 00:35:58.017247  3187 net.cpp:84] Creating Layer relu2
I0513 00:35:58.017251  3187 net.cpp:406] relu2 <- pool2
I0513 00:35:58.017254  3187 net.cpp:367] relu2 -> pool2 (in-place)
I0513 00:35:58.017258  3187 net.cpp:122] Setting up relu2
I0513 00:35:58.017262  3187 net.cpp:129] Top shape: 100 42 5 5 (105000)
I0513 00:35:58.017266  3187 net.cpp:137] Memory required for data: 22814000
I0513 00:35:58.017271  3187 layer_factory.hpp:77] Creating layer conv3
I0513 00:35:58.017285  3187 net.cpp:84] Creating Layer conv3
I0513 00:35:58.017292  3187 net.cpp:406] conv3 <- pool2
I0513 00:35:58.017297  3187 net.cpp:380] conv3 -> conv3
I0513 00:35:58.017405  3187 net.cpp:122] Setting up conv3
I0513 00:35:58.017410  3187 net.cpp:129] Top shape: 100 64 4 4 (102400)
I0513 00:35:58.017413  3187 net.cpp:137] Memory required for data: 23223600
I0513 00:35:58.017421  3187 layer_factory.hpp:77] Creating layer pool3
I0513 00:35:58.017426  3187 net.cpp:84] Creating Layer pool3
I0513 00:35:58.017428  3187 net.cpp:406] pool3 <- conv3
I0513 00:35:58.017434  3187 net.cpp:380] pool3 -> pool3
I0513 00:35:58.017441  3187 net.cpp:122] Setting up pool3
I0513 00:35:58.017446  3187 net.cpp:129] Top shape: 100 64 2 2 (25600)
I0513 00:35:58.017448  3187 net.cpp:137] Memory required for data: 23326000
I0513 00:35:58.017452  3187 layer_factory.hpp:77] Creating layer relu3
I0513 00:35:58.017455  3187 net.cpp:84] Creating Layer relu3
I0513 00:35:58.017458  3187 net.cpp:406] relu3 <- pool3
I0513 00:35:58.017462  3187 net.cpp:367] relu3 -> pool3 (in-place)
I0513 00:35:58.017467  3187 net.cpp:122] Setting up relu3
I0513 00:35:58.017470  3187 net.cpp:129] Top shape: 100 64 2 2 (25600)
I0513 00:35:58.017473  3187 net.cpp:137] Memory required for data: 23428400
I0513 00:35:58.017477  3187 layer_factory.hpp:77] Creating layer ip1
I0513 00:35:58.017483  3187 net.cpp:84] Creating Layer ip1
I0513 00:35:58.017487  3187 net.cpp:406] ip1 <- pool3
I0513 00:35:58.017491  3187 net.cpp:380] ip1 -> ip1
I0513 00:35:58.018661  3187 net.cpp:122] Setting up ip1
I0513 00:35:58.018667  3187 net.cpp:129] Top shape: 100 512 (51200)
I0513 00:35:58.018671  3187 net.cpp:137] Memory required for data: 23633200
I0513 00:35:58.018676  3187 layer_factory.hpp:77] Creating layer sig1
I0513 00:35:58.018681  3187 net.cpp:84] Creating Layer sig1
I0513 00:35:58.018683  3187 net.cpp:406] sig1 <- ip1
I0513 00:35:58.018689  3187 net.cpp:367] sig1 -> ip1 (in-place)
I0513 00:35:58.018694  3187 net.cpp:122] Setting up sig1
I0513 00:35:58.018698  3187 net.cpp:129] Top shape: 100 512 (51200)
I0513 00:35:58.018702  3187 net.cpp:137] Memory required for data: 23838000
I0513 00:35:58.018704  3187 layer_factory.hpp:77] Creating layer ip2
I0513 00:35:58.018708  3187 net.cpp:84] Creating Layer ip2
I0513 00:35:58.018712  3187 net.cpp:406] ip2 <- ip1
I0513 00:35:58.018718  3187 net.cpp:380] ip2 -> ip2
I0513 00:35:58.018770  3187 net.cpp:122] Setting up ip2
I0513 00:35:58.018774  3187 net.cpp:129] Top shape: 100 10 (1000)
I0513 00:35:58.018777  3187 net.cpp:137] Memory required for data: 23842000
I0513 00:35:58.018784  3187 layer_factory.hpp:77] Creating layer ip2_ip2_0_split
I0513 00:35:58.018791  3187 net.cpp:84] Creating Layer ip2_ip2_0_split
I0513 00:35:58.018795  3187 net.cpp:406] ip2_ip2_0_split <- ip2
I0513 00:35:58.018800  3187 net.cpp:380] ip2_ip2_0_split -> ip2_ip2_0_split_0
I0513 00:35:58.018805  3187 net.cpp:380] ip2_ip2_0_split -> ip2_ip2_0_split_1
I0513 00:35:58.018811  3187 net.cpp:122] Setting up ip2_ip2_0_split
I0513 00:35:58.018815  3187 net.cpp:129] Top shape: 100 10 (1000)
I0513 00:35:58.018818  3187 net.cpp:129] Top shape: 100 10 (1000)
I0513 00:35:58.018821  3187 net.cpp:137] Memory required for data: 23850000
I0513 00:35:58.018824  3187 layer_factory.hpp:77] Creating layer accuracy
I0513 00:35:58.018829  3187 net.cpp:84] Creating Layer accuracy
I0513 00:35:58.018832  3187 net.cpp:406] accuracy <- ip2_ip2_0_split_0
I0513 00:35:58.018836  3187 net.cpp:406] accuracy <- label_cifar_1_split_0
I0513 00:35:58.018841  3187 net.cpp:380] accuracy -> accuracy
…
