…
I0512 17:42:57.299921  2206 net.cpp:294] The NetState phase (0) differed from the phase (1) specified by a rule in layer cifar
I0512 17:42:57.299985  2206 net.cpp:51] Initializing net from parameters: 
name: "CIFAR10_mlp"
state {
  phase: TRAIN
  level: 0
  stage: ""
}
layer {
  name: "cifar"
  type: "Data"
  top: "data"
  top: "label"
  include {
    phase: TRAIN
  }
  transform_param {
    mean_file: "../caffe/examples/cifar10/mean.binaryproto"
  }
  data_param {
    source: "../caffe/examples/cifar10/cifar10_train_lmdb"
    batch_size: 100
    backend: LMDB
  }
}
layer {
  name: "conv1"
  type: "Convolution"
  bottom: "data"
  top: "conv1"
  param {
    lr_mult: 1
  }
  param {
    lr_mult: 2
  }
  convolution_param {
    num_output: 32
    pad: 1
    kernel_size: 5
    stride: 1
  }
}
layer {
  name: "relu1"
  type: "ReLU"
  bottom: "conv1"
  top: "conv1"
}
layer {
  name: "conv2"
  type: "Convolution"
  bottom: "conv1"
  top: "conv2"
  param {
    lr_mult: 1
  }
  param {
    lr_mult: 2
  }
  convolution_param {
    num_output: 32
    pad: 1
    kernel_size: 4
    stride: 2
  }
}
layer {
  name: "relu2"
  type: "ReLU"
  bottom: "conv2"
  top: "conv2"
}
layer {
  name: "drop1"
  type: "Dropout"
  bottom: "conv2"
  top: "drop1"
  dropout_param {
    dropout_ratio: 0.25
  }
}
layer {
  name: "ip2"
  type: "InnerProduct"
  bottom: "drop1"
  top: "ip2"
  param {
    lr_mult: 1
  }
  param {
    lr_mult: 2
  }
  inner_product_param {
    num_output: 10
    weight_filler {
      type: "gaussian"
      std: 0.1
    }
    bias_filler {
      type: "constant"
    }
  }
}
layer {
  name: "accuracy"
  type: "Accuracy"
  bottom: "ip2"
  bottom: "label"
  top: "accuracy"
}
layer {
  name: "loss"
  type: "SoftmaxWithLoss"
  bottom: "ip2"
  bottom: "label"
  top: "loss"
}
I0512 17:42:57.300051  2206 layer_factory.hpp:77] Creating layer cifar
I0512 17:42:57.300139  2206 db_lmdb.cpp:35] Opened lmdb ../caffe/examples/cifar10/cifar10_train_lmdb
I0512 17:42:57.300168  2206 net.cpp:84] Creating Layer cifar
I0512 17:42:57.300175  2206 net.cpp:380] cifar -> data
I0512 17:42:57.300195  2206 net.cpp:380] cifar -> label
I0512 17:42:57.300206  2206 data_transformer.cpp:25] Loading mean file from: ../caffe/examples/cifar10/mean.binaryproto
I0512 17:42:57.300276  2206 data_layer.cpp:45] output data size: 100,3,32,32
I0512 17:42:57.300380  2206 net.cpp:122] Setting up cifar
I0512 17:42:57.300390  2206 net.cpp:129] Top shape: 100 3 32 32 (307200)
I0512 17:42:57.300393  2206 net.cpp:129] Top shape: 100 (100)
I0512 17:42:57.300396  2206 net.cpp:137] Memory required for data: 1229200
I0512 17:42:57.300402  2206 layer_factory.hpp:77] Creating layer label_cifar_1_split
I0512 17:42:57.300408  2206 net.cpp:84] Creating Layer label_cifar_1_split
I0512 17:42:57.300413  2206 net.cpp:406] label_cifar_1_split <- label
I0512 17:42:57.300422  2206 net.cpp:380] label_cifar_1_split -> label_cifar_1_split_0
I0512 17:42:57.300429  2206 net.cpp:380] label_cifar_1_split -> label_cifar_1_split_1
I0512 17:42:57.300437  2206 net.cpp:122] Setting up label_cifar_1_split
I0512 17:42:57.300441  2206 net.cpp:129] Top shape: 100 (100)
I0512 17:42:57.300446  2206 net.cpp:129] Top shape: 100 (100)
I0512 17:42:57.300448  2206 net.cpp:137] Memory required for data: 1230000
I0512 17:42:57.300451  2206 layer_factory.hpp:77] Creating layer conv1
I0512 17:42:57.300462  2206 net.cpp:84] Creating Layer conv1
I0512 17:42:57.300464  2206 net.cpp:406] conv1 <- data
I0512 17:42:57.300469  2206 net.cpp:380] conv1 -> conv1
I0512 17:42:57.300508  2206 net.cpp:122] Setting up conv1
I0512 17:42:57.300513  2206 net.cpp:129] Top shape: 100 32 30 30 (2880000)
I0512 17:42:57.300528  2206 net.cpp:137] Memory required for data: 12750000
I0512 17:42:57.300541  2206 layer_factory.hpp:77] Creating layer relu1
I0512 17:42:57.300546  2206 net.cpp:84] Creating Layer relu1
I0512 17:42:57.300549  2206 net.cpp:406] relu1 <- conv1
I0512 17:42:57.300554  2206 net.cpp:367] relu1 -> conv1 (in-place)
I0512 17:42:57.300559  2206 net.cpp:122] Setting up relu1
I0512 17:42:57.300565  2206 net.cpp:129] Top shape: 100 32 30 30 (2880000)
I0512 17:42:57.300567  2206 net.cpp:137] Memory required for data: 24270000
I0512 17:42:57.300570  2206 layer_factory.hpp:77] Creating layer conv2
I0512 17:42:57.300576  2206 net.cpp:84] Creating Layer conv2
I0512 17:42:57.300580  2206 net.cpp:406] conv2 <- conv1
I0512 17:42:57.300585  2206 net.cpp:380] conv2 -> conv2
I0512 17:42:57.300634  2206 net.cpp:122] Setting up conv2
I0512 17:42:57.300639  2206 net.cpp:129] Top shape: 100 32 15 15 (720000)
I0512 17:42:57.300642  2206 net.cpp:137] Memory required for data: 27150000
I0512 17:42:57.300648  2206 layer_factory.hpp:77] Creating layer relu2
I0512 17:42:57.300652  2206 net.cpp:84] Creating Layer relu2
I0512 17:42:57.300655  2206 net.cpp:406] relu2 <- conv2
I0512 17:42:57.300659  2206 net.cpp:367] relu2 -> conv2 (in-place)
I0512 17:42:57.300664  2206 net.cpp:122] Setting up relu2
I0512 17:42:57.300668  2206 net.cpp:129] Top shape: 100 32 15 15 (720000)
I0512 17:42:57.300671  2206 net.cpp:137] Memory required for data: 30030000
I0512 17:42:57.300674  2206 layer_factory.hpp:77] Creating layer drop1
I0512 17:42:57.300678  2206 net.cpp:84] Creating Layer drop1
I0512 17:42:57.300681  2206 net.cpp:406] drop1 <- conv2
I0512 17:42:57.300686  2206 net.cpp:380] drop1 -> drop1
I0512 17:42:57.300694  2206 net.cpp:122] Setting up drop1
I0512 17:42:57.300699  2206 net.cpp:129] Top shape: 100 32 15 15 (720000)
I0512 17:42:57.300703  2206 net.cpp:137] Memory required for data: 32910000
I0512 17:42:57.300705  2206 layer_factory.hpp:77] Creating layer ip2
I0512 17:42:57.300709  2206 net.cpp:84] Creating Layer ip2
I0512 17:42:57.300714  2206 net.cpp:406] ip2 <- drop1
I0512 17:42:57.300717  2206 net.cpp:380] ip2 -> ip2
I0512 17:42:57.302111  2206 net.cpp:122] Setting up ip2
I0512 17:42:57.302119  2206 net.cpp:129] Top shape: 100 10 (1000)
I0512 17:42:57.302121  2206 net.cpp:137] Memory required for data: 32914000
I0512 17:42:57.302129  2206 layer_factory.hpp:77] Creating layer ip2_ip2_0_split
I0512 17:42:57.302134  2206 net.cpp:84] Creating Layer ip2_ip2_0_split
I0512 17:42:57.302137  2206 net.cpp:406] ip2_ip2_0_split <- ip2
I0512 17:42:57.302142  2206 net.cpp:380] ip2_ip2_0_split -> ip2_ip2_0_split_0
I0512 17:42:57.302150  2206 net.cpp:380] ip2_ip2_0_split -> ip2_ip2_0_split_1
I0512 17:42:57.302155  2206 net.cpp:122] Setting up ip2_ip2_0_split
I0512 17:42:57.302160  2206 net.cpp:129] Top shape: 100 10 (1000)
I0512 17:42:57.302163  2206 net.cpp:129] Top shape: 100 10 (1000)
I0512 17:42:57.302166  2206 net.cpp:137] Memory required for data: 32922000
I0512 17:42:57.302170  2206 layer_factory.hpp:77] Creating layer accuracy
I0512 17:42:57.302175  2206 net.cpp:84] Creating Layer accuracy
I0512 17:42:57.302177  2206 net.cpp:406] accuracy <- ip2_ip2_0_split_0
I0512 17:42:57.302181  2206 net.cpp:406] accuracy <- label_cifar_1_split_0
I0512 17:42:57.302186  2206 net.cpp:380] accuracy -> accuracy
…
