…
I0513 12:51:28.497942  2209 net.cpp:294] The NetState phase (0) differed from the phase (1) specified by a rule in layer cifar
I0513 12:51:28.498066  2209 net.cpp:51] Initializing net from parameters: 
name: "CIFAR10_mlp"
state {
  phase: TRAIN
  level: 0
  stage: ""
}
layer {
  name: "cifar"
  type: "Data"
  top: "data"
  top: "label"
  include {
    phase: TRAIN
  }
  transform_param {
    mean_file: "../caffe/examples/cifar10/mean.binaryproto"
  }
  data_param {
    source: "../caffe/examples/cifar10/cifar10_train_lmdb"
    batch_size: 100
    backend: LMDB
  }
}
layer {
  name: "conv1"
  type: "Convolution"
  bottom: "data"
  top: "conv1"
  param {
    lr_mult: 1
  }
  param {
    lr_mult: 2
  }
  convolution_param {
    num_output: 48
    kernel_size: 3
    stride: 3
  }
}
layer {
  name: "relu1"
  type: "ReLU"
  bottom: "conv1"
  top: "relu1"
}
layer {
  name: "conv2"
  type: "Convolution"
  bottom: "relu1"
  top: "conv2"
  param {
    lr_mult: 1
  }
  param {
    lr_mult: 2
  }
  convolution_param {
    num_output: 48
    kernel_size: 3
    stride: 3
  }
}
layer {
  name: "relu2"
  type: "ReLU"
  bottom: "conv2"
  top: "relu2"
}
layer {
  name: "pool1"
  type: "Pooling"
  bottom: "relu2"
  top: "pool1"
  pooling_param {
    pool: MAX
    kernel_size: 2
    stride: 2
  }
}
layer {
  name: "drop1"
  type: "Dropout"
  bottom: "pool1"
  top: "drop1"
  dropout_param {
    dropout_ratio: 0.25
  }
}
layer {
  name: "conv3"
  type: "Convolution"
  bottom: "drop1"
  top: "conv3"
  param {
    lr_mult: 1
  }
  param {
    lr_mult: 2
  }
  convolution_param {
    num_output: 96
    kernel_size: 3
    stride: 3
  }
}
layer {
  name: "relu3"
  type: "ReLU"
  bottom: "conv3"
  top: "relu3"
}
layer {
  name: "conv4"
  type: "Convolution"
  bottom: "relu3"
  top: "conv4"
  param {
    lr_mult: 1
  }
  param {
    lr_mult: 2
  }
  convolution_param {
    num_output: 96
    kernel_size: 3
    stride: 3
  }
}
layer {
  name: "relu4"
  type: "ReLU"
  bottom: "conv4"
  top: "relu4"
}
layer {
  name: "pool2"
  type: "Pooling"
  bottom: "relu4"
  top: "pool2"
  pooling_param {
    pool: MAX
    kernel_size: 2
    stride: 2
  }
}
layer {
  name: "drop2"
  type: "Dropout"
  bottom: "pool2"
  top: "drop2"
  dropout_param {
    dropout_ratio: 0.25
  }
}
layer {
  name: "conv5"
  type: "Convolution"
  bottom: "drop2"
  top: "conv5"
  param {
    lr_mult: 1
  }
  param {
    lr_mult: 2
  }
  convolution_param {
    num_output: 192
    kernel_size: 3
    stride: 3
  }
}
layer {
  name: "relu5"
  type: "ReLU"
  bottom: "conv5"
  top: "relu5"
}
layer {
  name: "pool3"
  type: "Pooling"
  bottom: "relu5"
  top: "pool3"
  pooling_param {
    pool: MAX
    kernel_size: 2
    stride: 2
  }
}
layer {
  name: "drop3"
  type: "Dropout"
  bottom: "pool3"
  top: "drop3"
  dropout_param {
    dropout_ratio: 0.25
  }
}
layer {
  name: "flatten1"
  type: "Flatten"
  bottom: "drop3"
  top: "flatten1"
}
layer {
  name: "ip1"
  type: "InnerProduct"
  bottom: "flatten1"
  top: "ip1"
  param {
    lr_mult: 1
  }
  param {
    lr_mult: 2
  }
  inner_product_param {
    num_output: 512
    weight_filler {
      type: "xavier"
    }
  }
}
layer {
  name: "relu6"
  type: "ReLU"
  bottom: "ip1"
  top: "relu6"
}
layer {
  name: "drop4"
  type: "Dropout"
  bottom: "relu6"
  top: "drop4"
  dropout_param {
    dropout_ratio: 0.5
  }
}
layer {
  name: "ip2"
  type: "InnerProduct"
  bottom: "drop4"
  top: "ip2"
  param {
    lr_mult: 1
  }
  param {
    lr_mult: 2
  }
  inner_product_param {
    num_output: 256
    weight_filler {
      type: "xavier"
    }
  }
}
layer {
  name: "relu7"
  type: "ReLU"
  bottom: "ip2"
  top: "relu7"
}
layer {
  name: "drop5"
  type: "Dropout"
  bottom: "relu7"
  top: "drop5"
  dropout_param {
    dropout_ratio: 0.5
  }
}
layer {
  name: "ip3"
  type: "InnerProduct"
  bottom: "drop5"
  top: "ip3"
  param {
    lr_mult: 1
  }
  param {
    lr_mult: 2
  }
  inner_product_param {
    num_output: 10
    weight_filler {
      type: "xavier"
    }
  }
}
layer {
  name: "accuracy"
  type: "Accuracy"
  bottom: "ip3"
  bottom: "label"
  top: "accuracy"
}
layer {
  name: "loss"
  type: "SoftmaxWithLoss"
  bottom: "ip3"
  bottom: "label"
  top: "loss"
}
I0513 12:51:28.498181  2209 layer_factory.hpp:77] Creating layer cifar
I0513 12:51:28.589439  2209 db_lmdb.cpp:35] Opened lmdb ../caffe/examples/cifar10/cifar10_train_lmdb
I0513 12:51:28.612159  2209 net.cpp:84] Creating Layer cifar
I0513 12:51:28.612196  2209 net.cpp:380] cifar -> data
I0513 12:51:28.612234  2209 net.cpp:380] cifar -> label
I0513 12:51:28.612254  2209 data_transformer.cpp:25] Loading mean file from: ../caffe/examples/cifar10/mean.binaryproto
I0513 12:51:28.626683  2209 data_layer.cpp:45] output data size: 100,3,32,32
I0513 12:51:28.626878  2209 net.cpp:122] Setting up cifar
I0513 12:51:28.626893  2209 net.cpp:129] Top shape: 100 3 32 32 (307200)
I0513 12:51:28.626899  2209 net.cpp:129] Top shape: 100 (100)
I0513 12:51:28.626901  2209 net.cpp:137] Memory required for data: 1229200
I0513 12:51:28.626914  2209 layer_factory.hpp:77] Creating layer label_cifar_1_split
I0513 12:51:28.626927  2209 net.cpp:84] Creating Layer label_cifar_1_split
I0513 12:51:28.626935  2209 net.cpp:406] label_cifar_1_split <- label
I0513 12:51:28.626950  2209 net.cpp:380] label_cifar_1_split -> label_cifar_1_split_0
I0513 12:51:28.626963  2209 net.cpp:380] label_cifar_1_split -> label_cifar_1_split_1
I0513 12:51:28.626973  2209 net.cpp:122] Setting up label_cifar_1_split
I0513 12:51:28.626978  2209 net.cpp:129] Top shape: 100 (100)
I0513 12:51:28.626982  2209 net.cpp:129] Top shape: 100 (100)
I0513 12:51:28.627039  2209 net.cpp:137] Memory required for data: 1230000
I0513 12:51:28.627046  2209 layer_factory.hpp:77] Creating layer conv1
I0513 12:51:28.627063  2209 net.cpp:84] Creating Layer conv1
I0513 12:51:28.627068  2209 net.cpp:406] conv1 <- data
I0513 12:51:28.627073  2209 net.cpp:380] conv1 -> conv1
I0513 12:51:28.627112  2209 net.cpp:122] Setting up conv1
I0513 12:51:28.627117  2209 net.cpp:129] Top shape: 100 48 10 10 (480000)
I0513 12:51:28.627121  2209 net.cpp:137] Memory required for data: 3150000
I0513 12:51:28.627144  2209 layer_factory.hpp:77] Creating layer relu1
I0513 12:51:28.629981  2209 net.cpp:84] Creating Layer relu1
I0513 12:51:28.630002  2209 net.cpp:406] relu1 <- conv1
I0513 12:51:28.630010  2209 net.cpp:380] relu1 -> relu1
I0513 12:51:28.630020  2209 net.cpp:122] Setting up relu1
I0513 12:51:28.630026  2209 net.cpp:129] Top shape: 100 48 10 10 (480000)
I0513 12:51:28.630030  2209 net.cpp:137] Memory required for data: 5070000
I0513 12:51:28.630034  2209 layer_factory.hpp:77] Creating layer conv2
I0513 12:51:28.630050  2209 net.cpp:84] Creating Layer conv2
I0513 12:51:28.630054  2209 net.cpp:406] conv2 <- relu1
I0513 12:51:28.630060  2209 net.cpp:380] conv2 -> conv2
I0513 12:51:28.630128  2209 net.cpp:122] Setting up conv2
I0513 12:51:28.630146  2209 net.cpp:129] Top shape: 100 48 3 3 (43200)
I0513 12:51:28.630149  2209 net.cpp:137] Memory required for data: 5242800
I0513 12:51:28.630157  2209 layer_factory.hpp:77] Creating layer relu2
I0513 12:51:28.630163  2209 net.cpp:84] Creating Layer relu2
I0513 12:51:28.630167  2209 net.cpp:406] relu2 <- conv2
I0513 12:51:28.630172  2209 net.cpp:380] relu2 -> relu2
I0513 12:51:28.630178  2209 net.cpp:122] Setting up relu2
I0513 12:51:28.630183  2209 net.cpp:129] Top shape: 100 48 3 3 (43200)
I0513 12:51:28.630187  2209 net.cpp:137] Memory required for data: 5415600
I0513 12:51:28.630190  2209 layer_factory.hpp:77] Creating layer pool1
I0513 12:51:28.630199  2209 net.cpp:84] Creating Layer pool1
I0513 12:51:28.630203  2209 net.cpp:406] pool1 <- relu2
I0513 12:51:28.630216  2209 net.cpp:380] pool1 -> pool1
I0513 12:51:28.630250  2209 net.cpp:122] Setting up pool1
I0513 12:51:28.630255  2209 net.cpp:129] Top shape: 100 48 2 2 (19200)
I0513 12:51:28.630259  2209 net.cpp:137] Memory required for data: 5492400
I0513 12:51:28.630262  2209 layer_factory.hpp:77] Creating layer drop1
I0513 12:51:28.630269  2209 net.cpp:84] Creating Layer drop1
I0513 12:51:28.630271  2209 net.cpp:406] drop1 <- pool1
I0513 12:51:28.630276  2209 net.cpp:380] drop1 -> drop1
I0513 12:51:28.630288  2209 net.cpp:122] Setting up drop1
I0513 12:51:28.630292  2209 net.cpp:129] Top shape: 100 48 2 2 (19200)
I0513 12:51:28.630295  2209 net.cpp:137] Memory required for data: 5569200
I0513 12:51:28.630300  2209 layer_factory.hpp:77] Creating layer conv3
I0513 12:51:28.630309  2209 net.cpp:84] Creating Layer conv3
I0513 12:51:28.630312  2209 net.cpp:406] conv3 <- drop1
I0513 12:51:28.630317  2209 net.cpp:380] conv3 -> conv3
I0513 12:51:28.630452  2209 net.cpp:122] Setting up conv3
I0513 12:51:28.630457  2209 net.cpp:129] Top shape: 100 96 1 1 (9600)
I0513 12:51:28.630460  2209 net.cpp:137] Memory required for data: 5607600
I0513 12:51:28.630467  2209 layer_factory.hpp:77] Creating layer relu3
I0513 12:51:28.630475  2209 net.cpp:84] Creating Layer relu3
I0513 12:51:28.630477  2209 net.cpp:406] relu3 <- conv3
I0513 12:51:28.630482  2209 net.cpp:380] relu3 -> relu3
I0513 12:51:28.630487  2209 net.cpp:122] Setting up relu3
I0513 12:51:28.630491  2209 net.cpp:129] Top shape: 100 96 1 1 (9600)
I0513 12:51:28.630496  2209 net.cpp:137] Memory required for data: 5646000
I0513 12:51:28.630498  2209 layer_factory.hpp:77] Creating layer conv4
I0513 12:51:28.630506  2209 net.cpp:84] Creating Layer conv4
I0513 12:51:28.630509  2209 net.cpp:406] conv4 <- relu3
I0513 12:51:28.630514  2209 net.cpp:380] conv4 -> conv4
I0513 12:51:28.630767  2209 net.cpp:122] Setting up conv4
I0513 12:51:28.630772  2209 net.cpp:129] Top shape: 100 96 1 1 (9600)
I0513 12:51:28.630775  2209 net.cpp:137] Memory required for data: 5684400
I0513 12:51:28.630781  2209 layer_factory.hpp:77] Creating layer relu4
I0513 12:51:28.630789  2209 net.cpp:84] Creating Layer relu4
I0513 12:51:28.630791  2209 net.cpp:406] relu4 <- conv4
I0513 12:51:28.630795  2209 net.cpp:380] relu4 -> relu4
I0513 12:51:28.630800  2209 net.cpp:122] Setting up relu4
I0513 12:51:28.630805  2209 net.cpp:129] Top shape: 100 96 1 1 (9600)
I0513 12:51:28.630808  2209 net.cpp:137] Memory required for data: 5722800
I0513 12:51:28.630811  2209 layer_factory.hpp:77] Creating layer pool2
I0513 12:51:28.630818  2209 net.cpp:84] Creating Layer pool2
I0513 12:51:28.630821  2209 net.cpp:406] pool2 <- relu4
I0513 12:51:28.630826  2209 net.cpp:380] pool2 -> pool2
I0513 12:51:28.630832  2209 net.cpp:122] Setting up pool2
I0513 12:51:28.630836  2209 net.cpp:129] Top shape: 100 96 1 1 (9600)
I0513 12:51:28.630839  2209 net.cpp:137] Memory required for data: 5761200
I0513 12:51:28.630842  2209 layer_factory.hpp:77] Creating layer drop2
I0513 12:51:28.630846  2209 net.cpp:84] Creating Layer drop2
I0513 12:51:28.630851  2209 net.cpp:406] drop2 <- pool2
I0513 12:51:28.630857  2209 net.cpp:380] drop2 -> drop2
I0513 12:51:28.630862  2209 net.cpp:122] Setting up drop2
I0513 12:51:28.630867  2209 net.cpp:129] Top shape: 100 96 1 1 (9600)
I0513 12:51:28.630870  2209 net.cpp:137] Memory required for data: 5799600
I0513 12:51:28.630873  2209 layer_factory.hpp:77] Creating layer conv5
I0513 12:51:28.630878  2209 net.cpp:84] Creating Layer conv5
I0513 12:51:28.630882  2209 net.cpp:406] conv5 <- drop2
I0513 12:51:28.630890  2209 net.cpp:380] conv5 -> conv5
I0513 12:51:28.631392  2209 net.cpp:122] Setting up conv5
I0513 12:51:28.631403  2209 net.cpp:129] Top shape: 100 192 1 1 (19200)
I0513 12:51:28.631407  2209 net.cpp:137] Memory required for data: 5876400
I0513 12:51:28.631418  2209 layer_factory.hpp:77] Creating layer relu5
I0513 12:51:28.631424  2209 net.cpp:84] Creating Layer relu5
I0513 12:51:28.631428  2209 net.cpp:406] relu5 <- conv5
I0513 12:51:28.631433  2209 net.cpp:380] relu5 -> relu5
I0513 12:51:28.631438  2209 net.cpp:122] Setting up relu5
I0513 12:51:28.631455  2209 net.cpp:129] Top shape: 100 192 1 1 (19200)
I0513 12:51:28.631458  2209 net.cpp:137] Memory required for data: 5953200
I0513 12:51:28.631461  2209 layer_factory.hpp:77] Creating layer pool3
I0513 12:51:28.631474  2209 net.cpp:84] Creating Layer pool3
I0513 12:51:28.631477  2209 net.cpp:406] pool3 <- relu5
I0513 12:51:28.631481  2209 net.cpp:380] pool3 -> pool3
I0513 12:51:28.631489  2209 net.cpp:122] Setting up pool3
I0513 12:51:28.631494  2209 net.cpp:129] Top shape: 100 192 1 1 (19200)
I0513 12:51:28.631496  2209 net.cpp:137] Memory required for data: 6030000
I0513 12:51:28.631500  2209 layer_factory.hpp:77] Creating layer drop3
I0513 12:51:28.631503  2209 net.cpp:84] Creating Layer drop3
I0513 12:51:28.631507  2209 net.cpp:406] drop3 <- pool3
I0513 12:51:28.631511  2209 net.cpp:380] drop3 -> drop3
I0513 12:51:28.631520  2209 net.cpp:122] Setting up drop3
I0513 12:51:28.631525  2209 net.cpp:129] Top shape: 100 192 1 1 (19200)
I0513 12:51:28.631527  2209 net.cpp:137] Memory required for data: 6106800
I0513 12:51:28.631531  2209 layer_factory.hpp:77] Creating layer flatten1
I0513 12:51:28.631536  2209 net.cpp:84] Creating Layer flatten1
I0513 12:51:28.631539  2209 net.cpp:406] flatten1 <- drop3
I0513 12:51:28.631544  2209 net.cpp:380] flatten1 -> flatten1
I0513 12:51:28.631551  2209 net.cpp:122] Setting up flatten1
I0513 12:51:28.631554  2209 net.cpp:129] Top shape: 100 192 (19200)
I0513 12:51:28.631557  2209 net.cpp:137] Memory required for data: 6183600
I0513 12:51:28.631561  2209 layer_factory.hpp:77] Creating layer ip1
I0513 12:51:28.631567  2209 net.cpp:84] Creating Layer ip1
I0513 12:51:28.631572  2209 net.cpp:406] ip1 <- flatten1
I0513 12:51:28.631578  2209 net.cpp:380] ip1 -> ip1
I0513 12:51:28.632586  2209 net.cpp:122] Setting up ip1
I0513 12:51:28.632594  2209 net.cpp:129] Top shape: 100 512 (51200)
I0513 12:51:28.632598  2209 net.cpp:137] Memory required for data: 6388400
I0513 12:51:28.632603  2209 layer_factory.hpp:77] Creating layer relu6
I0513 12:51:28.632611  2209 net.cpp:84] Creating Layer relu6
I0513 12:51:28.632616  2209 net.cpp:406] relu6 <- ip1
I0513 12:51:28.632619  2209 net.cpp:380] relu6 -> relu6
I0513 12:51:28.632625  2209 net.cpp:122] Setting up relu6
I0513 12:51:28.632629  2209 net.cpp:129] Top shape: 100 512 (51200)
I0513 12:51:28.632632  2209 net.cpp:137] Memory required for data: 6593200
I0513 12:51:28.632635  2209 layer_factory.hpp:77] Creating layer drop4
I0513 12:51:28.632639  2209 net.cpp:84] Creating Layer drop4
I0513 12:51:28.632642  2209 net.cpp:406] drop4 <- relu6
I0513 12:51:28.632647  2209 net.cpp:380] drop4 -> drop4
I0513 12:51:28.632652  2209 net.cpp:122] Setting up drop4
I0513 12:51:28.632657  2209 net.cpp:129] Top shape: 100 512 (51200)
I0513 12:51:28.632659  2209 net.cpp:137] Memory required for data: 6798000
I0513 12:51:28.632663  2209 layer_factory.hpp:77] Creating layer ip2
I0513 12:51:28.632669  2209 net.cpp:84] Creating Layer ip2
I0513 12:51:28.632673  2209 net.cpp:406] ip2 <- drop4
I0513 12:51:28.632678  2209 net.cpp:380] ip2 -> ip2
I0513 12:51:28.633893  2209 net.cpp:122] Setting up ip2
I0513 12:51:28.633899  2209 net.cpp:129] Top shape: 100 256 (25600)
I0513 12:51:28.633903  2209 net.cpp:137] Memory required for data: 6900400
I0513 12:51:28.633908  2209 layer_factory.hpp:77] Creating layer relu7
I0513 12:51:28.633911  2209 net.cpp:84] Creating Layer relu7
I0513 12:51:28.633915  2209 net.cpp:406] relu7 <- ip2
I0513 12:51:28.633919  2209 net.cpp:380] relu7 -> relu7
I0513 12:51:28.633924  2209 net.cpp:122] Setting up relu7
I0513 12:51:28.633929  2209 net.cpp:129] Top shape: 100 256 (25600)
I0513 12:51:28.633931  2209 net.cpp:137] Memory required for data: 7002800
I0513 12:51:28.633934  2209 layer_factory.hpp:77] Creating layer drop5
I0513 12:51:28.633939  2209 net.cpp:84] Creating Layer drop5
I0513 12:51:28.633944  2209 net.cpp:406] drop5 <- relu7
I0513 12:51:28.633947  2209 net.cpp:380] drop5 -> drop5
I0513 12:51:28.633952  2209 net.cpp:122] Setting up drop5
I0513 12:51:28.633956  2209 net.cpp:129] Top shape: 100 256 (25600)
I0513 12:51:28.633962  2209 net.cpp:137] Memory required for data: 7105200
I0513 12:51:28.633971  2209 layer_factory.hpp:77] Creating layer ip3
I0513 12:51:28.633977  2209 net.cpp:84] Creating Layer ip3
I0513 12:51:28.633981  2209 net.cpp:406] ip3 <- drop5
I0513 12:51:28.633985  2209 net.cpp:380] ip3 -> ip3
I0513 12:51:28.634016  2209 net.cpp:122] Setting up ip3
I0513 12:51:28.634021  2209 net.cpp:129] Top shape: 100 10 (1000)
I0513 12:51:28.634023  2209 net.cpp:137] Memory required for data: 7109200
I0513 12:51:28.634028  2209 layer_factory.hpp:77] Creating layer ip3_ip3_0_split
I0513 12:51:28.634033  2209 net.cpp:84] Creating Layer ip3_ip3_0_split
I0513 12:51:28.634037  2209 net.cpp:406] ip3_ip3_0_split <- ip3
I0513 12:51:28.634042  2209 net.cpp:380] ip3_ip3_0_split -> ip3_ip3_0_split_0
I0513 12:51:28.634048  2209 net.cpp:380] ip3_ip3_0_split -> ip3_ip3_0_split_1
I0513 12:51:28.634055  2209 net.cpp:122] Setting up ip3_ip3_0_split
I0513 12:51:28.634059  2209 net.cpp:129] Top shape: 100 10 (1000)
I0513 12:51:28.634063  2209 net.cpp:129] Top shape: 100 10 (1000)
I0513 12:51:28.634066  2209 net.cpp:137] Memory required for data: 7117200
I0513 12:51:28.634069  2209 layer_factory.hpp:77] Creating layer accuracy
I0513 12:51:28.634074  2209 net.cpp:84] Creating Layer accuracy
I0513 12:51:28.634078  2209 net.cpp:406] accuracy <- ip3_ip3_0_split_0
I0513 12:51:28.634083  2209 net.cpp:406] accuracy <- label_cifar_1_split_0
I0513 12:51:28.634088  2209 net.cpp:380] accuracy -> accuracy
…
